models/model.pth (torch, 378536 bytes, 8 tensors)

conv1.weight f4 [32, 1, 3, 3]
0	0x3e866174	0.26246226
1	0x3eb765ee	0.35819954
2	0x3e0aa589	0.13539709
3	0x3e7296ab	0.23690288
4	0x3e475081	0.19464304
5	0x3e47455f	0.19460057
6	0xbdd4ad4b	-0.103846155
7	0xbe8f4199	-0.27979735
8	0xbe8a6db2	-0.27036816
9	0x3d14a194	0.036286905
10	0x3eb864dd	0.36014453
11	0x3e478214	0.19483215
12	0xbced884f	-0.028995661
13	0xbd1da42a	-0.038486637
14	0x3d98c0fe	0.07458685
15	0xbea6c145	-0.32569328
16	0xbc548099	-0.012970113
17	0xbe0dfe98	-0.13866651
18	0x3e9de072	0.308353
19	0x3e480a6b	0.19535224
20	0xbebe87be	-0.37212938
21	0x3eb63712	0.3558889
22	0xbe93bd4d	-0.28855363
23	0xbe9d10a2	-0.30676752
24	0xbd6b1acb	-0.0573986
25	0xbd343458	-0.04399523
26	0xbe9e7c1e	-0.3095407
27	0xbe2d8273	-0.16944294
28	0xbd6d4bd9	-0.057933662
29	0x3db54086	0.088501975
30	0xbdb20ddd	-0.086940505
31	0x3dbb7136	0.09152453
32	0x3e1b5207	0.1516801
33	0x3d9719e3	0.073779844
34	0x3e0e5e12	0.13903072
35	0x3ec5ccfb	0.3863295
36	0x3e629f20	0.22131014
37	0x3d1892b7	0.037249293
38	0xbe43ab7a	-0.19108382
39	0x3e6c3f46	0.23071012
40	0x3de9dd0c	0.114191145
41	0xbdcb7b8d	-0.09935675
42	0x3e830460	0.25589275
43	0x3bca78b7	0.006178941
44	0x3e4d595a	0.20053616
45	0x3c9d1975	0.019177178
46	0xbdb743df	-0.08948492
47	0x3e005f01	0.12536241
48	0x3e63b6ee	0.22237751
49	0xbe27f849	-0.16403307
50	0xbd9befad	-0.07614074
51	0x3e7852ea	0.24250379
52	0xbe6b37e4	-0.2297054
53	0x3eb295af	0.34879825
54	0x3e844ba2	0.25838953
55	0xbe61aad3	-0.2203782
56	0xbe548958	-0.20755517
57	0xbc3014d6	-0.010747155
58	0xbd9377f0	-0.07200611
59	0xbe358198	-0.17725217
60	0x3d032d56	0.032025658
61	0xbe09d2ce	-0.13459322
62	0xbe730fe0	-0.23736525
63	0xbe503e90	-0.20336366
64	0xbd1defa4	-0.038558617
65	0x3ed1e278	0.40993094
66	0x3c8ecfa7	0.017433
67	0x3e1705b1	0.14748265
68	0x3e450b28	0.19242537
69	0xbe2fac43	-0.17155556
70	0xbe896af4	-0.2683941
71	0x3d75ce01	0.060010914
72	0x3ea7d8c1	0.32782558
73	0xbdcb95b1	-0.09940661
74	0x3eba2d76	0.3636281
75	0x3e98d1ef	0.29847667
76	0x3eb4163a	0.35173208
77	0xbd8352b7	-0.06412261
78	0x3e65576c	0.2239663
79	0xbe0c9815	-0.1372989
80	0xbe55a853	-0.20864992
81	0x3d1956a7	0.037436154
82	0xbe295b01	-0.16538621
83	0x3dd7c827	0.10536223
84	0xbe17cc3c	-0.14824003
85	0xbd943413	-0.07236495
86	0xbe86cf8f	-0.2633023
87	0xbca3d711	-0.020000013
88	0x3e79a679	0.2437991
89	0xbe616943	-0.2201281
90	0x3d3e1da9	0.046415005
91	0x3de43df6	0.111446306
92	0x3e8d4936	0.27594918
93	0x3e3f7464	0.18696743
94	0x3e3fc0e7	0.1872593
95	0xbe45a6df	-0.19301938
96	0x3e3ba1ad	0.18323393
97	0xbdd52bfd	-0.10408781
98	0x3ec8f53a	0.39249593
99	0xbd80103b	-0.06253096
100	0x3e33c4f9	0.17555608
101	0x3ebdbc85	0.3705789
102	0x3e4c6c03	0.19963078
103	0x3e41708e	0.18890592
104	0xbe124c7d	-0.1428699
105	0x3e44692f	0.1918075
106	0xba358aaf	-0.00069252675
107	0x3cb86e3a	0.022513498
108	0x3e750fd5	0.2393182
109	0xbe22ad70	-0.15886474
110	0x3db439a9	0.0880006
111	0x3dd364e6	0.10321979
112	0x3e2c7ee6	0.16845283
113	0xbe1133a9	-0.14179863
114	0xbe7a38d9	-0.24435748
115	0xbe0ec7c3	-0.1394339
116	0x3e48bcf0	0.19603324
117	0x3e55080b	0.2080385
118	0xbdbab6fc	-0.09116933
119	0xbc5b3441	-0.0133791575
120	0xbd86d970	-0.06584442
121	0x3c280e8b	0.010257374
122	0xbe99f872	-0.3007236
123	0xbd2d095d	-0.042245258
124	0xbe8fa4bb	-0.28055367
125	0x3ec2eb4c	0.38070142
126	0x3e2062e5	0.15662725
127	0x3e8723c6	0.2639448
128	0xbe8021b8	-0.25025725
129	0xbeb6068a	-0.35551864
130	0x3d598817	0.0531083
131	0xbe781374	-0.24226171
132	0xbdaca678	-0.08430189
133	0xbc4f32d9	-0.0126464
134	0xbe81f8bb	-0.2538508
135	0xbd1b43f2	-0.037906595
136	0x3ea144bc	0.31497753
137	0x3e0b9142	0.1362963
138	0x3eae4df2	0.34043843
139	0x3e4bfcf4	0.19920713
140	0xbe0b09c5	-0.13577946
141	0xbe205937	-0.15659033
142	0x3ea12373	0.31472358
143	0xbe7008d6	-0.2344087
144	0x3ca13e43	0.019683009
145	0x3e974422	0.2954417
146	0x3eb67211	0.356339
147	0xbd9f6102	-0.07782175
148	0xbc3e1d9d	-0.01160374
149	0x3e60adf9	0.21941365
150	0xbe935997	-0.2877929
151	0xbe951964	-0.29120934
152	0x3dfdb365	0.123877324
153	0x3d50e914	0.05100353
154	0xbd33aaab	-0.043863934
155	0xbe7723bd	-0.24134727
156	0x3eaf0dd3	0.34190235
157	0x3e9dfcf3	0.30857047
158	0xbe3bb145	-0.18329342
159	0x3e310ab3	0.17289238
160	0xbe7b5579	-0.24544324
161	0x3ec48f0f	0.38390395
162	0xbe42e0de	-0.19031093
163	0x3e575964	0.21030194
164	0xbe3b1e2a	-0.18273225
165	0x3eb82f28	0.35973477
166	0xbdc4d5d8	-0.096111
167	0xbea363d6	-0.31912106
168	0x3ebdf20f	0.3709874
169	0x3e11d652	0.14241913
170	0xbdf1df31	-0.118101485
171	0xbd68294a	-0.05668
172	0x3ea18226	0.31544608
173	0x3e450e64	0.19243771
174	0x3d9f2d25	0.077722825
175	0x3e4b0a22	0.19828084
176	0x3eb0db11	0.34542134
177	0x3ea5b436	0.32364053
178	0xbdd83cdc	-0.10558483
179	0xbdf13bac	-0.1177896
180	0xbe44f5e4	-0.19234425
181	0xbae34c0d	-0.001734139
182	0xbe2bdb99	-0.16782989
183	0xbe55d4fa	-0.20882025
184	0x3e8f9f90	0.28051424
185	0x3e16b679	0.14718045
186	0xbdc2466d	-0.09486089
187	0x3e76a2a1	0.24085476
188	0x3e40e439	0.1883706
189	0x3e4b4aa5	0.19852693
190	0x3ec09d1a	0.3761986
191	0x3e618c0c	0.2202608
192	0x3e267d9b	0.16258852
193	0x3e812f04	0.25231183
194	0xbc3b0a01	-0.011415959
195	0xbc829585	-0.015940437
196	0xbca0438d	-0.01956346
197	0x3ebebfd4	0.37255728
198	0xbc9e4635	-0.019320587
199	0xbe5b3efa	-0.21410742
200	0x3e84b9c6	0.25922984
201	0x3e87083e	0.26373476
202	0x3e114bcf	0.14189075
203	0x3e1f4ce7	0.1555668
204	0x3da30813	0.079605244
205	0x3cbe734b	0.023248335
206	0x3eba9f6a	0.36449748
207	0xbcf83c14	-0.030302085
208	0xbe3efab9	-0.1865033
209	0x3e3ebd67	0.18626939
210	0x3ec3357b	0.3812674
211	0x3d218d9d	0.039441694
212	0x3e1d3ca3	0.15355162
213	0x3e936d8f	0.28794524
214	0xbd361102	-0.044449814
215	0x3e55d358	0.20881402
216	0x3e24978f	0.1607344
217	0x3e42bb17	0.19016682
218	0xbe1f3f9b	-0.15551607
219	0x3d216a23	0.03940786
220	0xbe76e1a8	-0.24109519
221	0xbe59803c	-0.21240324
222	0xbe947f68	-0.29003453
223	0x3e8efdd6	0.27928036
224	0xbcac9a9b	-0.021069815
225	0x3c7f65d5	0.0155882435
226	0xbe1630b4	-0.14667016
227	0xbe832a13	-0.25618038
228	0xbe03011c	-0.12793392
229	0x3c7f2752	0.01557334
230	0xbe8d6930	-0.27619314
231	0x3e144437	0.14479147
232	0xbeabb114	-0.33533537
233	0x3e18baff	0.14915083
234	0xbeb4eecd	-0.3533844
235	0x3d8dddff	0.06927108
236	0x3beb5360	0.00718157
237	0xbe3daccb	-0.18522947
238	0xbeb9f5ab	-0.36320242
239	0xbea18686	-0.31547946
240	0x3e99f31a	0.30068284
241	0x3d897d08	0.06713301
242	0x3c8f27ad	0.017474974
243	0x3ce4958b	0.027903339
244	0xbe62760f	-0.22115348
245	0x3ece0862	0.4024077
246	0xbe1ff7bb	-0.15621845
247	0x3e7b0a7f	0.24515723
248	0x3ebe919d	0.3722047
249	0xbe011252	-0.12604645
250	0xbd25f4cf	-0.04051667
251	0x3e3b7a35	0.18308337
252	0x3c6f2780	0.01459682
253	0x3eb679ab	0.356397
254	0x3ec995ce	0.39372104
255	0xbd3fc30e	-0.046816878

conv1.bias f4 [32]
0	0x3d0c3eeb	0.03423969
1	0x3e9ef633	0.3104721
2	0x3e2b968e	0.16756651
3	0xbdc272dc	-0.09494564
4	0xbe1bc08c	-0.1521017
5	0xbd65d840	-0.056114435
6	0xbea8efba	-0.32995397
7	0x3b078719	0.002067989
8	0xbd2c9789	-0.042136703
9	0x3e736bd1	0.23771597
10	0x3e24bf08	0.16088498
11	0xbcb81f64	-0.022475906
12	0x3eb0b005	0.34509292
13	0xbdd5378b	-0.104109846
14	0x3eae3930	0.34028006
15	0xbdf305e9	-0.11866362
16	0x3a51cd49	0.0008003307
17	0xbe54a575	-0.20766242
18	0x3e095cc1	0.13414289
19	0x39816897	0.00024682723
20	0x3eaaabb8	0.33334136
21	0x39c38750	0.00037294114
22	0xbdfd7bc0	-0.12377119
23	0xbe097afa	-0.13425818
24	0xbe2d34c1	-0.16914655
25	0x3ebaf0f9	0.36511973
26	0x3ea06652	0.31328064
27	0xbe07f6d1	-0.13277747
28	0x3a412348	0.0007367623
29	0x3eae3b77	0.34029743
30	0x3ea13bbd	0.3149089
31	0xbdcaada8	-0.098964036

conv2.weight f4 [64, 32, 3, 3]
0	0xbd277e48	-0.040891916
1	0xbbabd816	-0.0052442653
2	0x3d572323	0.052523743
3	0x3d7867f8	0.060646027
4	0x3d2ddf66	0.042449377
5	0xbca83c1a	-0.020536471
6	0xbc565468	-0.013081647
7	0xbd082701	-0.033240322
8	0x3d4498f4	0.04799743
9	0x3d15502d	0.036453415
10	0xbd6e75a7	-0.05821767
11	0xbd7fd9a8	-0.062463433
12	0x3b34b796	0.0027575246
13	0xbcc61885	-0.024181614
14	0xbc6d1d83	-0.014472368
15	0xbc8c1e9c	-0.01710444
16	0x3b471374	0.0030376585
17	0xbbba9f1e	-0.005695238
18	0xbd2e65ed	-0.042577673
19	0x3caf00f0	0.021362752
20	0x3da8e651	0.08247054
21	0xbd12442d	-0.03570955
22	0xbd978361	-0.073981054
23	0xbc5ff31c	-0.013668802
24	0xbdb82cea	-0.08992942
25	0xbdb15f77	-0.086607866
26	0x3d027477	0.03184935
27	0x3cbd827b	0.023133507
28	0x3d6156ec	0.055014536
29	0x3d41edb0	0.047345817
30	0x3b0ddcac	0.0021646423
31	0xbd1b0ce5	-0.037854094
32	0xbd6252ea	-0.055254854
33	0x3d672fb0	0.056441963
34	0x3d13f83c	0.036125407
35	0x3d648d50	0.05579883
36	0x3c6eb4c8	0.014569469
37	0xbc2aba7e	-0.01042044
38	0x3d0f9ef4	0.0350637
39	0x3c8dc923	0.017307824
40	0x3d87fe1c	0.066402644
41	0x3cfdde8c	0.030989908
42	0xbdb0fbe1	-0.08641792
43	0xbccc455e	-0.02493542
44	0x3cc1d0ca	0.023659129
45	0x3d2211d8	0.0395678
46	0xbd11fdbe	-0.035642378
47	0x3db4693b	0.088091336
48	0xbd521335	-0.05128785
49	0x3d8bd398	0.06827468
50	0x3d9ac33c	0.07556769
51	0xbc2d0477	-0.0105601465
52	0x3d3c1833	0.045921516
53	0x3d01898d	0.03162532
54	0x3b59f718	0.0033258852
55	0xbd3a7843	-0.045524847
56	0x3b506023	0.0031795583
57	0x3d684480	0.05670595
58	0x3d6637aa	0.05620543
59	0x3d326958	0.043557495
60	0xbd383b1e	-0.044978254
61	0x3d0e48d3	0.03473742
62	0x3d58ad3a	0.052899577
63	0x3c9a2764	0.018817611
64	0xbcd9c390	-0.02658251
65	0xbb3e8df0	-0.00290763
66	0xbca6fb85	-0.020383606
67	0x3cc027c5	0.023456464
68	0xbcd3a60d	-0.025836015
69	0x3da961bc	0.082705945
70	0x3dc56e16	0.09640138
71	0x3b3174bf	0.0027077643
72	0x3d8275f7	0.06370156
73	0x3c9e7f8d	0.01934793
74	0x3cc094eb	0.02350851
75	0xbd5fb96b	-0.054620188
76	0xbc0d0976	-0.008608213
77	0xb9acfa88	-0.00032993057
78	0xbdbd9e93	-0.09258761
79	0xbce44a69	-0.027867513
80	0x3b83457e	0.004006087
81	0x3bdfe836	0.0068331016
82	0xbd25d431	-0.040485565
83	0x3d6caa2a	0.05777947
84	0xbce28543	-0.027651435
85	0xbc364cbd	-0.011126694
86	0x3d0f5232	0.034990497
87	0x3c33bef3	0.010970819
88	0xbd00a4c6	-0.03140714
89	0x3d0dadc6	0.03458955
90	0xbcc4f5af	-0.024042932
91	0x3d8d8303	0.06909754
92	0xbd537c18	-0.051632017
93	0xbd35eecd	-0.04441719
94	0xbb58a415	-0.0033056785
95	0x3c57b6bf	0.013166129
96	0x3c0b8f83	0.008518103
97	0x3a8619f6	0.0010231126
98	0x3a7029e3	0.0009161515
99	0xbbc8ae60	-0.0061243027
100	0x3d9629f2	0.07332219
101	0xbd1e8d9f	-0.03870928
102	0xbceea10e	-0.029129531
103	0xbc2afa83	-0.010435703
104	0x3d88c22f	0.066776626
105	0x3c8a128c	0.016854547
106	0x3cf31437	0.029672725
107	0xbc9738c5	-0.018459687
108	0xbc5716df	-0.0131280115
109	0xbc753593	-0.014966386
110	0x3d6c382a	0.05767075
111	0xbbaf772b	-0.005354782
112	0x3cae3987	0.021267666
113	0x3d2e26ee	0.042517595
114	0x3d62e1e1	0.055391196
115	0x3ca851b8	0.020546779
116	0x3d2cf2b5	0.04222365
117	0x3d06f6d8	0.032950252
118	0x3bbdd2b4	0.00579294
119	0xbb1adb5b	-0.0023629281
120	0xbc9be8da	-0.01903193
121	0xbd61a76d	-0.05509131
122	0x3a737c45	0.0009288232
123	0xbd80f0b8	-0.062959135
124	0xbd96078a	-0.07325657
125	0x3cedfaf8	0.029050335
126	0x3d09c47a	0.03363464
127	0xba87893a	-0.0010340579
128	0xbb93b89e	-0.004508092
129	0x3c89ed02	0.016836647
130	0x3c4c054e	0.012452437
131	0xbd43ea2b	-0.04783074
132	0xbd03e2a2	-0.032198556
133	0xbd36daaa	-0.044642128
134	0x3c1db862	0.00962648
135	0xbccbc778	-0.024875388
136	0x3b8a42ae	0.0042193746
137	0xbc8a3b42	-0.01687396
138	0xbd08f8eb	-0.03344051
139	0xbb96cd43	-0.004602106
140	0xbc5a7cdd	-0.013335434
141	0xbd274753	-0.040839504
142	0x3d26d1b8	0.040727347
143	0xbb996f02	-0.0046824226
144	0x3c4d74e6	0.012540078
145	0x3c4c975a	0.012487257
146	0xbd8029c3	-0.062579654
147	0x3d09f708	0.033682853
148	0x3d264353	0.04059155
149	0xbc46938b	-0.012120138
150	0x3ca3db91	0.020002158
151	0x3d947e76	0.07250683
152	0x3bcc7d0c	0.0062404927
153	0x3d6bfcfc	0.05761431
154	0xbb3ecb15	-0.0029112746
155	0xbbf5f42f	-0.0075059156
156	0x3d2a6348	0.04159859
157	0x3d54c891	0.051949088
158	0x3db52838	0.08845562
159	0x3cc549a9	0.024082975
160	0x3cae3ce5	0.021269271
161	0x3dec1da8	0.11529094
162	0x3c7911cd	0.015201998
163	0x3d5b844a	0.053592958
164	0x3dc2d6fc	0.09513661
165	0xbd444b2f	-0.047923263
166	0x3d4791f8	0.04872319
167	0x3d2bf9e6	0.04198637
168	0xbc655df5	-0.013999452
169	0xbd3a0635	-0.045416076
170	0xbbdbc3b6	-0.00670668
171	0x3d95b3d2	0.07309689
172	0xbc71320e	-0.014721407
173	0x3d832719	0.06403942
174	0xbbbcea0f	-0.0057652066
175	0xbcadf587	-0.02123524
176	0x3c0bca8d	0.008532179
177	0xbd8788b0	-0.06617868
178	0xbc9ce8fe	-0.019154068
179	0x3d7f5194	0.06233366
180	0xbd196890	-0.037453234
181	0x3d51d051	0.051224057
182	0x3a6540cc	0.0008745312
183	0xbd3e8100	-0.046509743
184	0xbd2a7674	-0.041616872
185	0xbc9efab4	-0.019406654
186	0x3cefbb5b	0.029264143
187	0xbbf1db5e	-0.007380887
188	0xbd290be1	-0.041271094
189	0xbbb2fc52	-0.005462208
190	0x3d95b9ce	0.0731083
191	0xbd318c5d	-0.04334675
192	0x3d71149c	0.058857545
193	0x3d85c5c6	0.06531863
194	0xbc1fa9e0	-0.009745091
195	0x3d0fc033	0.035095405
196	0x3d97cbc1	0.0741191
197	0x3d8d85fa	0.069103196
198	0x3c983738	0.018581018
199	0xbc651ff6	-0.013984671
200	0xbd104f20	-0.03523171
201	0x3d1c3e9e	0.038145654
202	0xbd1178f0	-0.035515726
203	0xbd2f58ef	-0.042809423
204	0x3c63281c	0.013864543
205	0x3d8049b1	0.062640555
206	0x3d770b3d	0.060313452
207	0x3cce6377	0.025193913
208	0xbd0e349a	-0.034718134
209	0x3d8ef748	0.06980759
210	0x3d2c7591	0.042104308
211	0xbd143376	-0.03618189
212	0x3d4d5ed2	0.050139256
213	0xbd32cd65	-0.04365291
214	0x3d45c7bd	0.04828619
215	0x3d8f76bd	0.070050694
216	0xbd3f5447	-0.046711233
217	0xbd1e969e	-0.03871786
218	0x3d468f0c	0.048476264
219	0xbc5aeaf1	-0.013361678
220	0xbcde801a	-0.027160693
221	0x3be90682	0.0071113715
222	0xbcd367ee	-0.025806393
223	0x3cb0b541	0.021570804
224	0x3b8592cc	0.0040763374
225	0xbd887276	-0.06662457
226	0x3d2f2b1c	0.04276572
227	0xbcc81150	-0.024422318
228	0x3d207a86	0.039179347
229	0xbd46f14f	-0.048569974
230	0x3d80a6fd	0.062818505
231	0x3c7a9896	0.015295168
232	0xbc6ab53b	-0.014325435
233	0x3d4ace6a	0.049513258
234	0x3c9ad745	0.018901477
235	0xbd2c0061	-0.04199255
236	0x3c4f1e9b	0.012641574
237	0xbd890231	-0.06689871
238	0x3ce55e29	0.027999
239	0xbc1a2181	-0.009407402
240	0xbc84f438	-0.016229734
241	0xbd105ea2	-0.0352465
242	0x3babf801	0.00524807
243	0x3cc001db	0.023438385
244	0xbc51668b	-0.012780796
245	0xbd62f211	-0.055406634
246	0x3ca2a81a	0.019855548
247	0x3db91609	0.09037406
248	0xbccd12b3	-0.02503333
249	0x3d982f42	0.07430889
250	0x3d6af79f	0.057365056
251	0x3d69efb3	0.05711336
252	0x3d70681e	0.058693044
253	0x3d8607a0	0.06544423
254	0xbcd3bfaa	-0.025848228
255	0xbc611f74	-0.013740409

conv2.bias f4 [64]
0	0x3c8e11dd	0.017342502
1	0xbd7b3ed9	-0.061339233
2	0xbba3dbe8	-0.00500058
3	0x3b957eaf	0.004562221
4	0xbd0a53b9	-0.03377125
5	0xbd65fc3b	-0.05614875
6	0x3d442f66	0.047896765
7	0xbd581ef2	-0.052763887
8	0x3d17a04c	0.037018105
9	0xbc15c2c8	-0.009140678
10	0x3d1d31f3	0.038377713
11	0x3d5b3508	0.05351737
12	0x3c8bd013	0.017066991
13	0x3d0600f0	0.032715738
14	0xbc46005c	-0.012085047
15	0xbc9dd3fd	-0.019266123
16	0xbd2d1e26	-0.04226508
17	0xbd0e7e08	-0.03478816
18	0x3d44056b	0.04785673
19	0xbcfe8b25	-0.031072209
20	0x3d51eb0c	0.05124955
21	0xbccb03db	-0.024782112
22	0x3c8acf87	0.01694466
23	0x3d8b2a3d	0.06795166
24	0xbd596263	-0.053072345
25	0xbc9a355f	-0.018824277
26	0xbca46b29	-0.02007063
27	0xbd1239f0	-0.035699785
28	0x3cf3628c	0.029710077
29	0x3ca890b3	0.02057681
30	0xbcb24add	-0.021764213
31	0x3cde5ef3	0.027144885
32	0xbc4ab8e4	-0.012373183
33	0x3cb82f0f	0.022483377
34	0x3d214eaf	0.03938168
35	0x3d3a0014	0.04541023
36	0x3ce26e9f	0.027640639
37	0xbd533d5c	-0.05157219
38	0xbcbd9e02	-0.023146633
39	0xbcc23a0a	-0.023709316
40	0x3d8d12b1	0.06888331
41	0xbc087af3	-0.008330095
42	0xbd54b4be	-0.05193018
43	0x3ca07afc	0.019589894
44	0x3c89f9b4	0.0168427
45	0x3d0c16f5	0.03420158
46	0xbcd32f42	-0.02577937
47	0x3c1692f4	0.00919031
48	0xbc8460b7	-0.016159398
49	0x3cc4de2f	0.024031727
50	0x3cc9fbb0	0.024656147
51	0xbd5f8958	-0.05457434
52	0x3ccf51d1	0.025307568
53	0x3b9653bb	0.004587618
54	0xbd34f98d	-0.044183303
55	0xbc1191d8	-0.0088848695
56	0x3ca12615	0.01967148
57	0xbcb8ebdb	-0.022573402
58	0x3d8ea6d8	0.06965417
59	0x3daa9f5e	0.08331178
60	0x3d39a7e4	0.04532613
61	0x3d2ddb30	0.04244536
62	0x3db1bfb8	0.086791456
63	0xbc938950	-0.018009812

conv3.weight f4 [128, 64, 3, 3]
0	0x3d2d0bd5	0.042247612
1	0xbd237e28	-0.039915234
2	0x3a7c6aa0	0.00096289255
3	0x3cdc700d	0.026908899
4	0xbcf266ab	-0.029589972
5	0xbcaf7345	-0.02141727
6	0xb90f5096	-0.00013667563
7	0x3c305fdc	0.010765042
8	0xbd002aa4	-0.031290665
9	0x3d3a7080	0.045517445
10	0x3bab293c	0.0052234214
11	0xbc26e173	-0.010185587
12	0xbb95d26f	-0.004572205
13	0x3c203ca1	0.00978008
14	0x3c0eef60	0.008724064
15	0xbca1fa0d	-0.019772554
16	0xbd25d0a2	-0.04048217
17	0x3c3e878f	0.011628999
18	0xbc1722d1	-0.0092246095
19	0xbbcd46e6	-0.0062645553
20	0xbcbee90b	-0.023304483
21	0x3d3e3043	0.046432745
22	0xbc9f6a2b	-0.019459805
23	0x3c7b6371	0.015343533
24	0x3cace576	0.02110551
25	0xbc90e11d	-0.017685467
26	0x3c742a39	0.014902645
27	0xbb1239ee	-0.002231236
28	0xbcb106fa	-0.021609772
29	0x3cf3c517	0.029757066
30	0xbd24d468	-0.04024163
31	0x3cb7474e	0.022372868
32	0x3d0f440f	0.034977015
33	0xbcc1c0ba	-0.02365147
34	0xbd4012dc	-0.046892986
35	0x3d23d1cb	0.039994996
36	0x3cfb5db4	0.03068433
37	0x3caf971d	0.021434361
38	0x3d1c15e6	0.03810682
39	0x3d274c53	0.040844273
40	0x3bd19a48	0.0063965656
41	0xbccb6a8c	-0.024831079
42	0xbd08fa7e	-0.033442013
43	0xbc4d8abb	-0.012545283
44	0xba964532	-0.0011464714
45	0x3ccdebd6	0.02513687
46	0x3cd661f7	0.02616976
47	0xbc0dadcb	-0.0086473925
48	0xbd06f8d3	-0.03295214
49	0x3d031b8a	0.032008685
50	0xbd32ef44	-0.043685213
51	0x3ce296c3	0.02765978
52	0x3b860d1b	0.0040909178
53	0xbcb5f32b	-0.022210678
54	0x3ce865d0	0.02836886
55	0x3c9857a3	0.018596476
56	0x3cc7ee6c	0.02440568
57	0xbba33f31	-0.0049818982
58	0xbc4ccb8c	-0.012499701
59	0xbc4174b5	-0.01180761
60	0x3d21cec0	0.039503813
61	0xbd123c95	-0.035702307
62	0xbc9b1da6	-0.018935036
63	0xbc78d07b	-0.015186424
64	0x3cac9348	0.021066323
65	0xbd0d5ce4	-0.034512416
66	0xbbbbad4b	-0.0057274452
67	0x3c859c3e	0.016309854
68	0x3d02dddf	0.031949874
69	0xbc360f76	-0.011112085
70	0xbcc10f66	-0.023566913
71	0x3c948cbb	0.018133512
72	0x3cd80e9b	0.026374152
73	0x3bd24760	0.0064172
74	0xbd34fc6b	-0.044186037
75	0x3c2b44d3	0.010453421
76	0x3bef2e64	0.0072992314
77	0x39c938e3	0.0003838009
78	0x3d3fd59d	0.046834577
79	0x3d33f651	0.043936078
80	0xbc70e3d5	-0.014702757
81	0x3d5a1dc0	0.053251028
82	0xba3d6b73	-0.0007225789
83	0x3c8b89d2	0.017033491
84	0x3c7bd935	0.01537161
85	0xbd1afa4b	-0.037836354
86	0x3cbb58a4	0.022869416
87	0xbb1cedec	-0.0023945523
88	0xbd3795a3	-0.04482044
89	0xbd10b34a	-0.035327233
90	0xbd1f8f47	-0.038955
91	0xbd1021de	-0.03518855
92	0x3d015d95	0.031583387
93	0xbc8e06d3	-0.017337238
94	0x3d0fbf9c	0.035094842
95	0x3c021b35	0.007941057
96	0x3cfe10a7	0.0310138
97	0xbc7d91f9	-0.015476697
98	0x3bfcf73c	0.0077199023
99	0xbcd1e599	-0.025622176
100	0x3d2e45f3	0.042547178
101	0xbceb9d08	-0.028761402
102	0xbc6d6fe2	-0.014492007
103	0xbcbb7a9d	-0.022885615
104	0xbc9484c1	-0.018129708
105	0x3c81343b	0.015771976
106	0x3c1b37c4	0.009473745
107	0x3cfdde8d	0.03098991
108	0xbc6760bc	-0.014122184
109	0xbcee57d2	-0.02909461
110	0xbcb47da4	-0.022032566
111	0x3ae5f261	0.0017543548
112	0x3c1ea62f	0.009683176
113	0x3b0b763c	0.002128019
114	0x3c70343e	0.014660893
115	0xbd07695d	-0.033059467
116	0x3c3b1695	0.011418958
117	0xbb06f49c	-0.0020592576
118	0xbca6f8dd	-0.02038234
119	0xbb2ee309	-0.0026685616
120	0x3bd38eba	0.0064562233
121	0xbb51be44	-0.0032004276
122	0xbcc8024d	-0.02441516
123	0xbcc13b55	-0.023587862
124	0x3c505a2f	0.012716814
125	0x3d4ed8ff	0.050499912
126	0xbcca24c7	-0.02467574
127	0xbcaa0d34	-0.020758249
128	0xbcdc5b00	-0.026898861
129	0x3d19c65c	0.037542686
130	0x3b859718	0.0040768497
131	0x3caa2ab2	0.020772312
132	0xbb9c7f85	-0.0047759437
133	0x3cb9002b	0.022583088
134	0xbd867934	-0.065660864
135	0xbd06666f	-0.032812532
136	0xbd02c9b7	-0.03193065
137	0xbc5bfd6b	-0.013427119
138	0xbac6dc24	-0.0015171808
139	0x3d23fb18	0.040034384
140	0xbc67fbb6	-0.014159134
141	0xbb92d21e	-0.0044806143
142	0xbb7773d9	-0.003775826
143	0xbd16a905	-0.036782283
144	0xbc7ce876	-0.015436282
145	0xbb3f6506	-0.0029204502
146	0x3cd22f4b	0.025657317
147	0x3cdcf49b	0.026972106
148	0xbbfa9e33	-0.0076482533
149	0xbcbc9427	-0.023019863
150	0x3d0f233f	0.034945723
151	0xbcd26e10	-0.025687248
152	0xbcb7592c	-0.022381388
153	0xbd338dd9	-0.04383645
154	0x3d2b3b5e	0.041804664
155	0xbb564f3f	-0.0032701043
156	0x3be2af1d	0.006917848
157	0x3b2db90c	0.0026508002
158	0x3c0197d5	0.007909735
159	0x3cf7f4fc	0.030268185
160	0x3ce3e15b	0.027817419
161	0x3d38dcd1	0.045132462
162	0xbbef8eaa	-0.007310708
163	0x3cf0262e	0.02931508
164	0x3bc9bf4c	0.0061568376
165	0xbc1d63b6	-0.0096062925
166	0x3ceadac0	0.028668761
167	0xbd2139bc	-0.0393617
168	0x3d0f6820	0.03501141
169	0x3cc02ea0	0.023459733
170	0xbd42130a	-0.04738144
171	0xbc52c331	-0.01286392
172	0xbc9c43c6	-0.019075286
173	0xbd38bde3	-0.045102965
174	0x3c41120f	0.011784091
175	0x3ce85d29	0.028364735
176	0xbc9845b1	-0.018587919
177	0xbb446508	-0.0029967446
178	0xbd79249c	-0.06082593
179	0xbcdabaa2	-0.026700322
180	0x3c85ac7f	0.016317604
181	0xbc8f9565	-0.017527292
182	0x3d21c02f	0.03948992
183	0x3b01df58	0.001981696
184	0xbb57a5cf	-0.0032905226
185	0x3cf56c17	0.029958768
186	0x3cff49c5	0.031163106
187	0x3d0d1e20	0.034452558
188	0xbba0a42e	-0.0049023842
189	0x3d1d08f3	0.038338613
190	0x3cf89aed	0.030347312
191	0x3d116e69	0.035505686
192	0xbc19e6a0	-0.009393364
193	0x3ccf407b	0.025299301
194	0xbbd89076	-0.006609018
195	0xbc1574f1	-0.009122119
196	0x3c9f400d	0.019439721
197	0xbbb8d78d	-0.00564093
198	0xbd19d9c2	-0.037561186
199	0x3bb82821	0.005620018
200	0x3ca15739	0.019694911
201	0x3d0bca1b	0.03412829
202	0x3d6eeac3	0.058329355
203	0x3d4fda9c	0.05074559
204	0x3a194041	0.00058460614
205	0x3d6c00cc	0.057617947
206	0xbc65fa9a	-0.014036799
207	0x3ca1e086	0.019760381
208	0xbc15973d	-0.009130296
209	0x3cfe89cf	0.031071572
210	0xbcb3f19c	-0.021965794
211	0xbce39e21	-0.027785363
212	0xb9a2e69c	-0.00031070865
213	0xbc40453f	-0.01173526
214	0x3d02b694	0.0319124
215	0x3ccefd65	0.025267312
216	0x3cab5dd6	0.020918768
217	0x3c75666e	0.014978034
218	0xbc06ef7d	-0.008235809
219	0x3d250ed4	0.040297344
220	0x3cadf4b4	0.021234848
221	0xbaf2647e	-0.0018493084
222	0x3d09bb52	0.03362591
223	0xbd3ee21f	-0.046602365
224	0x3c4db4e1	0.012555332
225	0x3d1e0cd6	0.03858646
226	0x3d15f0a2	0.03660644
227	0xbb8e1dca	-0.004337047
228	0xba9b11fe	-0.0011830924
229	0x3d1b4cc8	0.03791502
230	0x3c4b217a	0.012398118
231	0x3c9cb6c1	0.019130113
232	0x3a96d587	0.0011507728
233	0x3b6d7e47	0.0036238597
234	0xbc8330b2	-0.01601443
235	0xbcd557c7	-0.026042832
236	0x3ac6caea	0.0015166674
237	0xbb821784	-0.0039700884
238	0xb8ccb928	-9.761966e-05
239	0x3d0f63a1	0.035007123
240	0x3c94ace1	0.018148841
241	0xbbc0d98f	-0.00588531
242	0x3c5befc3	0.013423863
243	0xbb426297	-0.0029660815
244	0x3cb25d30	0.02177295
245	0xbd068059	-0.032837246
246	0x3d11b6ad	0.035574604
247	0xbd348f05	-0.044081707
248	0x3c813c8c	0.015775941
249	0xbd09a059	-0.033600185
250	0xbd69a723	-0.05704416
251	0x3d08c28a	0.033388652
252	0xbc79ecf3	-0.015254247
253	0xbc1eee29	-0.0097003365
254	0xbbcc0710	-0.006226428
255	0x3d3ea3a9	0.046542797

conv3.bias f4 [128]
0	0xbd1739be	-0.0369203
1	0xbc913383	-0.017724758
2	0x3ce46aac	0.027882896
3	0xbca5a0e7	-0.020218326
4	0x3ca2ee87	0.01988913
5	0x3ce4f2f6	0.027947884
6	0x3c0945b2	0.008378433
7	0xbd0a1d36	-0.033719264
8	0xbd2fff6e	-0.042968206
9	0x3b059349	0.0020381978
10	0x3b0b2668	0.0021232609
11	0xbc00f711	-0.007871405
12	0xbd149904	-0.03627874
13	0xbc97f26e	-0.018548217
14	0xbc99f562	-0.018793765
15	0x3c3ff2e1	0.011715622
16	0xbc752828	-0.014963187
17	0x3bb10f4f	0.0054034363
18	0xbc768f3e	-0.0150488
19	0xbb35c184	-0.0027733753
20	0xbbfb017f	-0.0076600905
21	0x3c7f9222	0.015598806
22	0x3c9314e5	0.0179543
23	0xbcc368dd	-0.023853714
24	0xbd048f34	-0.03236313
25	0x3cd15768	0.025554374
26	0x3cc699e4	0.024243303
27	0x3ccf0c7a	0.025274504
28	0xbd059d0a	-0.032620467
29	0xbd27e000	-0.040985107
30	0xbd42f96b	-0.047601145
31	0x3ce6f9bc	0.028195255
32	0x3c894004	0.016754158
33	0xbb725eb3	-0.0036982715
34	0xbca84b83	-0.02054382
35	0x3cc5e8d4	0.024158873
36	0x3cbf8062	0.023376647
37	0xbc1e8c52	-0.00967701
38	0x3d08609a	0.03329525
39	0x3bfa2bed	0.007634631
40	0x3c2ffbf0	0.010741219
41	0x3d0742da	0.03302274
42	0x3bb60f73	0.005556041
43	0xbb8a1766	-0.004214215
44	0x3d214863	0.039375674
45	0xbc97a913	-0.018513238
46	0xbd12ad4d	-0.035809804
47	0x3d0b5304	0.034014717
48	0xbd069881	-0.032860283
49	0xb8663b2c	-5.489138e-05
50	0xbad93c97	-0.0016573843
51	0xbcf4c681	-0.02987981
52	0x3c534b0d	0.0128963115
53	0xbc9752a2	-0.01847202
54	0x3c2447e4	0.010026906
55	0x3bac6e9c	0.005262209
56	0x3ca2a932	0.01985607
57	0x3bfc85c4	0.007706376
58	0xbd20fec6	-0.03930547
59	0xbba24ced	-0.004953018
60	0x3cabd975	0.020977715
61	0xbaeadf9b	-0.0017919423
62	0xbc7dfa0f	-0.015501513
63	0xbd0e8946	-0.034798883
64	0x3a3d5b85	0.00072234153
65	0x3bdfc16c	0.0068284776
66	0x3d14dbff	0.036342617
67	0x3ca7b009	0.020469682
68	0xbd357241	-0.044298414
69	0xbd23459d	-0.03986131
70	0x3c22bdb7	0.009932927
71	0x3d210c5e	0.039318435
72	0x3c7322c5	0.014839833
73	0xbd324aab	-0.04352824
74	0x3d0ee60f	0.03488737
75	0x3d17278c	0.03690295
76	0x3bec2c3f	0.007207423
77	0x3cd5d6cb	0.026103398
78	0x3d0eb5e3	0.03484143
79	0xbca48556	-0.02008311
80	0x3ce1dd4b	0.027571341
81	0x3cc61cfb	0.02418374
82	0xbc8a4e35	-0.016882995
83	0x3c1884a7	0.0093089705
84	0xbd05d0d4	-0.032669857
85	0xbcdae09d	-0.026718432
86	0x3aa7f54c	0.0012814193
87	0xbbf9ab84	-0.007619323
88	0xbca0a8d8	-0.019611761
89	0x3c7c02a9	0.015381494
90	0x3a50e7cd	0.00079691113
91	0xbd4bb8f5	-0.049736936
92	0xbc54ba1d	-0.012983826
93	0x3d044b13	0.03229816
94	0xbc245b09	-0.01003147
95	0x3be9c499	0.007134032
96	0xbd0294b8	-0.03188011
97	0x3b38a9d4	0.0028177397
98	0x3cec90c0	0.028877616
99	0x3ce2de04	0.027693756
100	0x3b43fd2f	0.0029905548
101	0x3d059d21	0.032620553
102	0x3c1e0044	0.009643618
103	0xbcbb5108	-0.022865787
104	0x3d341347	0.043963697
105	0x3d14eabb	0.03635667
106	0xbbb24ed1	-0.0054415246
107	0x3c43c249	0.011948177
108	0xbc78e04a	-0.015190193
109	0x3cb00dd4	0.021490969
110	0xbc186cdf	-0.009303301
111	0xbcfe50ee	-0.03104445
112	0x3c8ee176	0.017441493
113	0x3be84e82	0.007089437
114	0x3cc49bbf	0.024000047
115	0xbd0bf6a0	-0.034170747
116	0xbc22adeb	-0.009929161
117	0xbc2f6097	-0.010704181
118	0x3cdb99f9	0.026806818
119	0xbd2e1931	-0.042504493
120	0xbce9e209	-0.028550165
121	0x3a9f1a27	0.0012138531
122	0xbc7f8d2a	-0.015597621
123	0x3c34ad6d	0.011027676
124	0xbc57182a	-0.01312832
125	0x3d0ed5f3	0.034872007
126	0xbd1688f1	-0.03675169
127	0xbccddc46	-0.025129449

fc1.weight f4 [10, 128]
0	0x3cc2aff6	0.023765545
1	0xbd7ab3bf	-0.061206575
2	0xbd3ac9f9	-0.045602772
3	0x3d960e71	0.07326973
4	0x3d9135be	0.07090329
5	0xbdcbdf2d	-0.09954677
6	0x3c35fae1	0.0111071775
7	0x3d974ff4	0.07388297
8	0xbd8b4a98	-0.06801337
9	0xbded8bc4	-0.11598924
10	0xbbae3548	-0.00531641
11	0xbde371b0	-0.111056685
12	0x3d2d5171	0.042313997
13	0x3d26f803	0.040763866
14	0x3c61f6be	0.013791738
15	0x3db2a57b	0.08722969
16	0x3e0a43eb	0.13502471
17	0x3c037cd6	0.008025369
18	0xbdabaa10	-0.08382046
19	0x3d02896d	0.03186934
20	0x3cdc0072	0.026855681
21	0x3da2e6fe	0.079542145
22	0xbdd0acee	-0.10189234
23	0xbdda2d7e	-0.10653208
24	0xbe02dc71	-0.12779404
25	0xbd59c3a0	-0.05316508
26	0xbdd70c45	-0.10500387
27	0xbcda0fc1	-0.02661884
28	0x3dc85724	0.09782246
29	0xbd5c2314	-0.05374439
30	0x3cb9e6ba	0.022693027
31	0x3d4378c8	0.047722608
32	0xbdc7ecd6	-0.0976197
33	0x3daafc08	0.083488524
34	0xbccd2634	-0.02504263
35	0x3d4552db	0.04817472
36	0xbdf346d1	-0.118787415
37	0x3d96d0e2	0.0736406
38	0x3b9a0753	0.00470058
39	0xbdb4c942	-0.088274494
40	0x3cc65f97	0.024215503
41	0xbdc5ae64	-0.09652403
42	0x3d5bc417	0.053653803
43	0xbd912ae4	-0.07088259
44	0xbceac729	-0.02865942
45	0xbd0af6df	-0.03392684
46	0xba277589	-0.00063880585
47	0x3d892ed7	0.06698387
48	0xbd9759d2	-0.07390179
49	0xbdfd8187	-0.12378221
50	0xbbb3965e	-0.0054805716
51	0x3c8dbbc3	0.017301446
52	0x3d661a86	0.05617764
53	0xbdbc0e1e	-0.0918238
54	0xbdd97ab9	-0.106191106
55	0xbc7514bc	-0.014958557
56	0xbca8d079	-0.02060722
57	0xbe030697	-0.12795483
58	0x3d96010c	0.073244184
59	0xbd7862b6	-0.060641013
60	0xbe0514fa	-0.12996283
61	0x3db364bf	0.0875945
62	0x3db2a071	0.08722008
63	0xbdafbfaf	-0.085814826
64	0x3c88a4fe	0.016680237
65	0xbdb833a9	-0.089942284
66	0x3d531154	0.051530197
67	0x3c240bbc	0.010012563
68	0xbdbfde7c	-0.093686074
69	0x3d0d172a	0.03444592
70	0x3ca9226f	0.020646302
71	0xbb9a194d	-0.004702723
72	0xbdb894b3	-0.09012737
73	0xbdcd7885	-0.10032753
74	0xbd080c3b	-0.03321479
75	0xbcb1694e	-0.021656659
76	0xbd1d4935	-0.038399894
77	0x3ce4ef78	0.027946219
78	0xbdd8f183	-0.1059294
79	0xbd4fab2e	-0.05070036
80	0xbdc808a6	-0.097672746
81	0xbcc4a83b	-0.024006
82	0x3b83b812	0.0040197456
83	0x3d98aa1a	0.07454319
84	0x3d7d4696	0.061834894
85	0xbb37a15f	-0.0028019769
86	0x3d55d687	0.052206542
87	0xbdeb8fe2	-0.11502053
88	0xbdfb51ca	-0.122714594
89	0x3d91b7c1	0.071151264
90	0xbc168747	-0.009187526
91	0xbc87d859	-0.016582655
92	0x3d918f61	0.071074255
93	0xbcfc7f2c	-0.030822359
94	0x3b7c80b0	0.0038528852
95	0xbcc55a1d	-0.02409082
96	0x3c42cb6d	0.011889321
97	0xbd50615c	-0.0508741
98	0x3da5b6df	0.080915205
99	0x3db06ad5	0.086141266
100	0x3c9bc8c7	0.019016637
101	0x3da9a9b2	0.0828432
102	0xbd04d927	-0.032433655
103	0xbd315fed	-0.043304373
104	0xbc8dd925	-0.017315457
105	0x3d3bf62d	0.04588907
106	0x3d4ddee0	0.05026138
107	0xbd00d8ef	-0.031456884
108	0x3d836187	0.06415086
109	0xbce62b79	-0.028096901
110	0x3dd9f49c	0.10642359
111	0x3d909e7a	0.07061477
112	0x3da8bc2f	0.08239018
113	0xbbb5e014	-0.005550394
114	0xba998b15	-0.0011714423
115	0xbc357971	-0.011076317
116	0x3d7fe0b7	0.062470164
117	0x3da3c80c	0.0799714
118	0x3c889858	0.016674206
119	0x3dcab17d	0.098971345
120	0x3d3aab4c	0.045573518
121	0xbcaef4f3	-0.021357035
122	0xbd4d0fd5	-0.050063927
123	0xbde577cb	-0.11204489
124	0x3d11e029	0.035614166
125	0xbda4f9e4	-0.08055475
126	0x3d2f4e97	0.04279956
127	0xbe0b5d7c	-0.1360988
128	0xbe065446	-0.13118085
129	0xbcf80c91	-0.03027943
130	0xbcdd1408	-0.02698709
131	0xbdbf167b	-0.0933046
132	0xbd037403	-0.03209306
133	0x3cca22d1	0.024674805
134	0xbc25b90c	-0.010114919
135	0xbdb21b3d	-0.086966015
136	0xbdb83e6b	-0.0899628
137	0x3da7ae2d	0.08187518
138	0xbdb214f6	-0.08695404
139	0x3dcca1e6	0.09991817
140	0x3d978399	0.07398147
141	0xbd7ad00d	-0.06123357
142	0xbde87786	-0.11350922
143	0xbbc09dc5	-0.0058781826
144	0x3cd4c232	0.025971506
145	0xbddec2a1	-0.10876966
146	0x3deaf237	0.1147198
147	0x3d5c15b8	0.05373165
148	0x3db815f9	0.08988566
149	0xbda73ffd	-0.08166502
150	0xbd12c624	-0.035833493
151	0xbddf770a	-0.10911377
152	0x3dc6909d	0.096955515
153	0x3d7be094	0.06149347
154	0xbd311366	-0.04323139
155	0x3cce2b99	0.025167273
156	0xbb942f66	-0.004522252
157	0xbe011629	-0.1260611
158	0xbe15b701	-0.14620592
159	0xbd57fb5a	-0.052729942
160	0x3da50586	0.08057694
161	0xbd815641	-0.0631528
162	0x3c99746c	0.018732272
163	0x3da14cc8	0.07875973
164	0xbd93f1f0	-0.0722388
165	0xbe07b833	-0.1325386
166	0x3d8814f7	0.06644624
167	0x3d396c39	0.045269225
168	0xbd4f0338	-0.05054018
169	0xbd800def	-0.062526576
170	0xbd8f9cf8	-0.07012361
171	0xbd221e01	-0.039579395
172	0x3def1210	0.11673367
173	0xbd2c2229	-0.042024765
174	0xbd2c1040	-0.042007685
175	0x3ccac103	0.024750238
176	0x3d811b7a	0.06304069
177	0x3c9d762a	0.019221384
178	0xbca2ad0b	-0.019857904
179	0x3dde41b2	0.10852374
180	0xbe07f18e	-0.1327574
181	0x3c99c08b	0.01876857
182	0x3d57ad9a	0.052655794
183	0x3be22527	0.0069014016
184	0x3dd2b3f4	0.102882296
185	0x3ddfb451	0.109230645
186	0x3d062177	0.03274676
187	0x3d166d14	0.03672512
188	0xbd8d5d3a	-0.06902547
189	0xbd6b3d8a	-0.057431735
190	0x3d55144c	0.05202131
191	0xbdc62fa6	-0.09677057
192	0xbce41a53	-0.027844584
193	0xbda120e2	-0.078676
194	0x3dda5b71	0.10661972
195	0x3d849974	0.06474581
196	0xbd840302	-0.06445886
197	0xbdff9e48	-0.12481362
198	0xbd767fc3	-0.060180437
199	0x3dc9eb84	0.09859374
200	0x3dc20fb7	0.094756536
201	0xbe0d19bf	-0.13779353
202	0xbda1a7d8	-0.07893342
203	0xbd0665f6	-0.03281208
204	0xbd472af9	-0.048624966
205	0x3d4652be	0.048418753
206	0x3db7f545	0.08982328
207	0x3cf11322	0.029428069
208	0x3df84105	0.121217765
209	0xbdbe54ba	-0.09293504
210	0x3d3187ec	0.043342516
211	0xbde1a997	-0.11018675
212	0xbd7da12e	-0.06192129
213	0x3d89b7cb	0.06724509
214	0xbb2a1abb	-0.0025955874
215	0xbc9de697	-0.019274993
216	0x3d97214d	0.073793985
217	0xbcfb1db3	-0.03065381
218	0x3d47e6da	0.04880414
219	0xbdfba450	-0.122871995
220	0x3d0e9f08	0.034819633
221	0xbdb092a8	-0.086217225
222	0x3e09e479	0.13466062
223	0x3da72b39	0.08162541
224	0x3db2d717	0.087324314
225	0x3d3ed90f	0.046593722
226	0xbdf2152e	-0.11820446
227	0xbd82e1bb	-0.06390711
228	0xbe07601e	-0.1322026
229	0xbdd1ea74	-0.102497965
230	0x3c88134e	0.016610768
231	0xbd42beb4	-0.04754515
232	0xbccb27d1	-0.02479926
233	0xbdc3bcc2	-0.09557487
234	0xbdab3d85	-0.08361343
235	0x3de26339	0.110540815
236	0xbd0d4520	-0.03448975
237	0x3d429e08	0.04751399
238	0xbd96323e	-0.07333802
239	0xbd9bdd20	-0.076105356
240	0xbcd5b86d	-0.026088918
241	0x3b993ef9	0.0046766964
242	0x3c4bbc77	0.01243507
243	0x3b88af27	0.0041712704
244	0x3d5ce7e0	0.05393207
245	0xbdbeb2be	-0.09311436
246	0x3b190ef0	0.002335485
247	0x3cbb75ad	0.02288326
248	0xbe21a496	-0.15785441
249	0x3d9c73c0	0.07639265
250	0xbe16e2c1	-0.14734937
251	0x3d6dc14b	0.058045667
252	0xbd8a6f1e	-0.06759475
253	0x3dd73df3	0.10509863
254	0xbdafe144	-0.08587888
255	0x3dd61003	0.10452273

fc1.bias f4 [10]
0	0xbdbb8d1a	-0.09157772
1	0x3ca3a842	0.019977693
2	0x3cf4fcbc	0.02990567
3	0x3cd9a27e	0.02656674
4	0x3d06e359	0.03293166
5	0x3cb11d5b	0.021620443
6	0x3d9d6b26	0.076864526
7	0xbd3dd404	-0.046344772
8	0xbc5e2d1f	-0.013560562
9	0xbd205a8d	-0.039148856
