models/model.pth (torch, 378536 bytes, 8 tensors)

conv1.weight f4 [32, 1, 3, 3]
000000 11 f4 8b 3e dd 11 cd 3c bd 18 28 bf 98 29 c3 3d
       0.27334645 0.025032932 -0.6566275 0.09529418
000010 b2 30 f7 3e fd a8 41 bf 9b f8 8e 3e 49 10 95 3e
       0.4827934 -0.7564848 0.27924046 0.29113987
000020 1e ae c0 bc 98 58 90 3d c7 9d e0 3e 13 7a 8e 3e
       -0.023520526 0.07048148 0.43870375 0.2782751
000030 25 93 ba 3e 01 e8 55 3c 6c 57 9a 3e df 57 17 bf
       0.36440387 0.013055802 0.30144823 -0.59118456
000040 58 56 21 bf c6 8f ca be 86 f9 67 bc c9 2b dc 3e
       -0.63022375 -0.39562815 -0.014158612 0.43002155
000050 04 9a 98 3d 7c d0 04 bf b2 06 1b bf cd ab b8 be
       0.07451251 -0.5188062 -0.6055709 -0.36068574
000060 61 79 f1 3e af db dc 3e 4a 83 8b bd 2b 7d 2b be
       0.47162917 0.43136355 -0.06812151 -0.16746967
000070 81 b2 ac be 55 fd e4 3d 6d ec 74 be cb 23 8a 3e
       -0.33729938 0.11181132 -0.23918314 0.26980433
000080 5a 38 af be da 84 8f be 97 9c a4 3e e2 aa c0 3e
       -0.3422268 -0.28031045 0.3215072 0.37630373
000090 25 cb 81 3e f5 25 f4 bd 2b c1 31 be d2 fc b7 3e
       0.253503 -0.11921302 -0.17358844 0.35935074
0000a0 d6 01 43 bc 8a bc e5 be a8 4d 20 3f 56 b2 1e be
       -0.011902293 -0.44870406 0.62618494 -0.15497717
0000b0 61 94 3c bf 7d 24 84 3e 1e 4d a4 3d 98 fb 29 bd
       -0.7366391 0.25809088 0.080225214 -0.041499704
0000c0 c3 53 5a bc 72 dc 00 be 3a 55 dc 3d 81 8b 7a be
       -0.013325634 -0.12584093 0.10758443 -0.24467279
0000d0 85 4c 82 3e 4c d1 94 3d 17 5d 90 3d dc ba 0d be
       0.25449005 0.07266483 0.070490055 -0.13840812
0000e0 87 a4 3d 3e 5c 11 b4 3d eb 08 5c 3e cc e5 ad be
       0.18519793 0.087923735 0.21487777 -0.33964384
0000f0 16 f9 b5 be 68 9b 82 3d 42 01 71 3e e8 8e 18 3e
       -0.355416 0.06377298 0.23535636 0.14898264
000100 98 cc 93 be 72 58 ac be 3f de 23 3e 8b 15 ab 3e
       -0.2886703 -0.33661228 0.16002749 0.33414873
000110 7d a6 e4 3e e7 9a 2f be 83 d6 4c bd b9 aa 80 3d
       0.4465827 -0.17148934 -0.05000926 0.06282563
000120 00 86 dd 3c e9 24 da 3e 6c 61 24 be f2 fd a9 be
       0.027041435 0.42606285 -0.16052788 -0.33201557
000130 fb 28 14 3e ca 55 ba 3e cc 8d 0f bf 30 8b 42 be
       0.14468758 0.36393577 -0.5607574 -0.18998408
000140 3e db cc 3e 19 5e 3e 3d 77 11 13 3e f8 54 3b bf
       0.4001102 0.046476457 0.14362131 -0.7317653
000150 78 24 84 3d d4 18 84 3e 9c d6 10 be d5 f2 d9 3b
       0.06452268 0.25800192 -0.14144367 0.0066512623
000160 f1 19 db 3e f5 5e 28 3d ec b3 36 be 4c 73 98 bd
       0.4279323 0.041106183 -0.17842072 -0.07443866
000170 1b 8d e2 bc 16 78 81 be 78 93 51 3d 1d b3 8d 3e
       -0.027655175 -0.2528693 0.051166028 0.27675715
000180 f3 47 49 3e 7f 75 b6 bd 67 2f a8 3d a3 12 d9 be
       0.19656353 -0.08909129 0.08212166 -0.4239703
000190 de f1 1f be 5f 7c 02 be 4f 67 51 3e 71 48 85 3e
       -0.15619609 -0.12742756 0.20449565 0.2603183
0001a0 5d 61 18 3f df b1 a2 be c2 4f e8 ba 79 91 71 3e
       0.59523565 -0.3177633 -0.0017723965 0.2359065
0001b0 70 f1 3e be 38 1b ac be d6 b4 bc bc 13 d5 9a be
       -0.18646789 -0.33614516 -0.023035448 -0.30240688
0001c0 6c 1b cb bd 68 d8 55 3c e7 1d 2b 3e 48 8c b0 bd
       -0.0991734 0.013052084 0.16710626 -0.086205065
0001d0 f6 72 c9 3e c8 13 20 bd 50 4d 8c 3e 3b af 22 3e
       0.3934552 -0.039081365 0.27402735 0.15887158
0001e0 1c 45 29 3d 52 c7 4b be 3f 95 ea 3e c1 33 70 bc
       0.041325673 -0.19900253 0.4581699 -0.014660777
0001f0 16 e9 26 be b1 78 03 bf bb 03 84 3c 69 8a 81 bf
       -0.16299853 -0.51356035 0.01611506 -1.0120364
000200 01 f0 d1 be 06 2a e7 be 85 e0 13 bd 82 11 a3 3e
       -0.4100342 -0.4514925 -0.03610279 0.31849295
000210 a9 8d 7d 3e d3 70 46 3f 59 03 b4 3e 85 17 77 3e
       0.2476107 0.77515906 0.35158804 0.24130066
000220 44 60 fe 3d 93 66 a6 3e e8 bf 0d 3e 91 e0 88 3e
       0.12420705 0.32500133 0.13842738 0.2673383
000230 8f 9a 39 3e 5f 7e 40 3e 64 b2 08 3e 62 e5 ae bd
       0.18125366 0.18798207 0.133493 -0.08539845
000240 f7 e2 ef bc 18 13 d9 3e 0f 0f a6 3e 4a b1 e9 be
       -0.02928303 0.4239738 0.32433364 -0.45643073
000250 fa 9d 90 bd 06 1c b8 3e 72 4a 19 bf 1c e6 93 3b
       -0.07061382 0.3595888 -0.5987922 0.004513515
000260 d6 ab c7 be ac 86 20 3e ce 16 1f 3e 1f ca 28 3e
       -0.38998288 0.15676373 0.15536043 0.16483353
000270 5c 42 86 be 4a 0b 5f 3e e7 d9 3c 3e 18 24 d9 be
       -0.26222503 0.2178165 0.18442498 -0.4241035
000280 2e c4 c3 bd 52 cd d6 bb 3e 4d c7 3e db 6d e0 3d
       -0.09558903 -0.006555238 0.3892612 0.10958453
000290 98 52 27 bf 91 db 33 3e 17 8d 0d bd a7 48 56 bf
       -0.65360403 0.17564227 -0.034558382 -0.8370461
0002a0 1a 1a 2d bf 06 3f 8c bf b8 c8 75 be 3f a7 82 3e
       -0.6761795 -1.0956733 -0.2400235 0.25518224
0002b0 eb 46 27 3f 65 c3 00 3b fa cc c4 3e 1e 12 38 be
       0.6534259 0.0019647714 0.38437635 -0.17975661
0002c0 cb 9c 41 bf af 2c 14 bc c8 84 25 be 8b 1e 98 be
       -0.7562987 -0.0090438565 -0.16163933 -0.29710802
0002d0 78 fc 0e bf 83 ad 52 be cb ca a6 3d 05 76 74 be
       -0.55853987 -0.20574002 0.081441484 -0.23873146
0002e0 e5 4e 71 bf cd 22 5d bf 0a e3 e7 3e 4b 70 f5 3e
       -0.9426101 -0.86381227 0.45290405 0.47937235
0002f0 38 5c 8a be 4c 94 f5 be 0a 24 ec be bb d5 86 3e
       -0.27023482 -0.47964704 -0.46121246 0.26334938
000300 cb 5b f9 be 15 dc 85 be dc d4 2c 3f 44 e6 57 bf
       -0.48702845 -0.26144472 0.675123 -0.8433573
000310 95 a3 36 bb f5 7b 14 3f e5 12 f3 3d 3a 8b 18 be
       -0.0027868499 0.58001643 0.11868838 -0.1489686
000320 6e 91 f1 bd 6d 41 78 3b cc dd 16 bd e6 e6 9d bd
       -0.11795317 0.0037880794 -0.036832616 -0.07710056
000330 e5 b0 12 bc eb 1b 74 be ed 63 b6 3e 69 44 b6 be
       -0.008953308 -0.23838775 0.35623112 -0.35599068
000340 bd 41 ca 3a d9 b2 ed 3d f2 54 44 3e 71 64 5f be
       0.0015430968 0.11606378 0.19173029 -0.21815659
000350 a8 26 e5 3e 9c 18 2f be 16 bf 87 3e 9c af 79 be
       0.44756055 -0.17099231 0.26512975 -0.24383396
000360 b3 6e 7c 3e 20 70 00 3f 2d 2b 12 3d 92 20 bf 3e
       0.24651603 0.5017109 0.035685707 0.37329537
000370 61 91 5f 3e 5a 01 2b be c5 a9 18 bf 2a a9 43 bf
       0.21832801 -0.16699734 -0.5963405 -0.7643
000380 40 9b 2c bf 13 7d 70 bb 39 b1 05 3e fd 7e 82 be
       -0.6742439 -0.0036695644 0.13055886 -0.2548751
000390 03 44 d3 bd 3e 4d c0 bd 2f 13 6b 3d dd f8 8a 3e
       -0.103157066 -0.09389733 0.05739134 0.27142993
0003a0 10 eb bb 3e 09 fc cf 3e 12 43 07 bf a1 6a 33 be
       0.36702776 0.40621975 -0.52836716 -0.17521144
0003b0 27 8d ee 3e 8a 92 3f bf 5d e8 1b be 0b 36 5c bd
       0.46592066 -0.74832976 -0.15225358 -0.053762477
0003c0 9d 96 c5 be 6c 05 08 bf 3f b2 96 be 5d 36 61 bd
       -0.3859147 -0.53133273 -0.29432866 -0.054983485
0003d0 fe 65 3a 3e 44 ee 5b 3d c9 35 8d be 5a c5 53 3e
       0.1820297 0.053694025 -0.27580097 0.20680752
0003e0 84 ec 7d bb d7 2f 37 be b4 5b f3 3c ac 2d ca bd
       -0.003874571 -0.17889343 0.029706813 -0.098719925
0003f0 f2 19 04 3e e8 01 f7 bd 61 31 cb bc 4c c6 02 3e
       0.12900522 -0.120609105 -0.02480382 0.12770957

conv1.bias f4 [32]
000000 1b 78 43 bc 5f 68 1e 3d af 05 a8 3c 51 10 95 bb
       -0.011930491 0.038673755 0.020510523 -0.004549064
000010 40 2e 52 bc 12 5b ad be 7c 25 86 bb 8b 82 31 be
       -0.01282841 -0.33858544 -0.004093824 -0.17334954
000020 cb 15 c0 bb 38 1a 9f bc 0e 59 89 bd d1 6b de bb
       -0.005861973 -0.019421682 -0.06706439 -0.006787755
000030 3c c5 85 bd 3f f9 29 bd 30 1e 67 bb 33 8e c9 be
       -0.0653176 -0.041497465 -0.0035265796 -0.39366302
000040 0e fb 01 bb d8 a2 9b bc c5 a9 da 3e 1d dc f1 bb
       -0.0019833478 -0.018998548 0.4270765 -0.007380976
000050 02 53 6f 3e 05 dd 87 bc 9b a3 c9 bc c8 6d 3d bd
       0.23371509 -0.016584883 -0.024614146 -0.046247274
000060 7a 6a f4 3d 5d a1 97 be 28 bc be 3e 99 b6 93 bd
       0.11934371 -0.29615298 0.37252927 -0.07212562
000070 4b d6 99 bd 7c 98 c1 be ea 13 e7 be 83 35 f0 3e
       -0.07511576 -0.3781165 -0.4513238 0.46915826

conv2.weight f4 [64, 32, 3, 3]
000000 19 d6 be 3c dc f9 e9 3d 64 71 ca 3a aa 84 e8 bd
       0.02329545 0.1142461 0.001544517 -0.11353429
000010 9e da 66 3e 95 56 82 3e d2 9e b7 bd eb 6b 10 3e
       0.22544333 0.25456682 -0.089658394 0.14103667
000020 19 78 b2 3c f6 96 bf be f8 c7 b3 be f1 0f 7d be
       0.021785783 -0.37419862 -0.35113502 -0.24713112
000030 26 40 d5 bc c8 13 2c be 05 01 c1 bd 6b 83 c5 3c
       -0.026031565 -0.16804421 -0.094240226 0.024110517
000040 a6 92 19 3e f0 6f ac bc ff 72 09 3e c5 14 ad 3e
       0.14997348 -0.02104947 0.13422774 0.33804908
000050 88 ba 65 3e 08 5c 3e be 38 e2 fd 3b 70 ba 42 3c
       0.22434437 -0.18589795 0.0077479146 0.0118852705
000060 0c d4 b8 be 70 18 69 be 72 33 07 bf 16 19 c7 3c
       -0.3609928 -0.22763228 -0.52812874 0.024303954
000070 41 bb 55 3c 41 dc 80 be a6 d1 e8 3c 17 de a9 3d
       0.013045133 -0.2516804 0.02842028 0.082943134
000080 63 93 db be c6 c0 05 bc 80 8b 1d be 4a de a8 be
       -0.42885885 -0.008163637 -0.15385246 -0.32982093
000090 ee ee 2d be f6 7c 0e bc 2a 54 2d 3d bb 2c 4e be
       -0.16985676 -0.008696785 0.042316593 -0.20134251
0000a0 09 a7 e4 3d c8 80 af 3e b1 4f b8 3c 8a 7f f0 3d
       0.11164672 0.3427794 0.022498937 0.11743076
0000b0 5b fd 3d 3e 9f da de bd 46 ed 85 be ef 4d df be
       0.18553679 -0.108815424 -0.26157588 -0.43614146
0000c0 7a 7a 11 3e ab 29 2d 3e 98 84 c6 be d0 e3 8f 3d
       0.14206877 0.16910426 -0.38773036 0.07025874
0000d0 c3 21 8e 3c e4 14 72 be e1 a6 48 be 66 24 4c be
       0.017350083 -0.23640782 -0.19594909 -0.1993576
0000e0 02 dc aa be a3 aa 86 bc 99 ab c3 3d 0c cd 93 be
       -0.33370978 -0.016438788 0.09554214 -0.28867376
0000f0 6a 4d 0f 3b 92 ff 99 bb 0e 2f 66 be 28 4a 69 3d
       0.002186621 -0.004699656 -0.22478887 0.056955487
000100 0c 4f 24 be 0c c4 c5 be 3d ee b0 3d e7 d5 02 3e
       -0.16045779 -0.38626134 0.0863919 0.1277691
000110 4e f8 ab be 43 62 ad 3d 05 70 b5 bd 73 c6 6d be
       -0.3358788 0.084660076 -0.08859257 -0.23220234
000120 8c c5 fc bd 80 59 c6 be ea 94 bd be 0c 6f 08 3d
       -0.123423666 -0.38740158 -0.37027675 0.033309028
000130 7d 39 09 bc 5d 30 c1 be bf 90 4c bd 3c a1 40 be
       -0.008375523 -0.3773221 -0.049942728 -0.18811506
000140 a1 78 9d be 1e 83 e3 3c de 2e 93 3d 2f 6e 4c be
       -0.30756095 0.027772482 0.071866736 -0.19963907
000150 ef 05 23 3d 83 80 35 3e 7d 46 13 bd 10 bc 42 bd
       0.03980058 0.17724805 -0.035955895 -0.04754263
000160 14 92 95 3c 8b 87 21 be 80 6c bc bd 3d 53 11 be
       0.018258132 -0.15774362 -0.09200382 -0.14191909
000170 25 0f 74 be 99 94 af 3d ef 99 fc 3d 84 f3 b7 be
       -0.23833902 0.08573265 0.12334048 -0.35927975
000180 3c ba 13 3d f9 67 ba 3c a5 a8 e4 be e9 52 9c bd
       0.03606628 0.022754656 -0.44659916 -0.07633001
000190 a2 61 64 be 65 d1 d9 be 77 ea ec 3d ae d0 93 3d
       -0.22302869 -0.42542568 0.11568158 0.07217537
0001a0 41 e0 14 bf 1a e2 9d 3d 5a c0 00 be 72 d5 d0 be
       -0.58154684 0.07709141 -0.12573376 -0.40787846
0001b0 69 59 5b bc b8 3c 39 bd 91 73 a1 be 9e 9a 77 3d
       -0.013388016 -0.04522392 -0.31533483 0.06045019
0001c0 fb c9 e6 3c 58 ec c9 be 53 23 84 3d 48 88 3b bd
       0.028172484 -0.39438128 0.0645205 -0.045784265
0001d0 a7 b9 bf be c6 d7 99 be b6 b9 80 be 5b eb af be
       -0.3744633 -0.30047435 -0.25141686 -0.3435925
0001e0 f1 7c 29 3d 72 32 9f 3d 7e 81 cb be 19 b4 d9 3d
       0.04137892 0.077732936 -0.39747232 0.10630054
0001f0 60 66 08 3e 90 46 0d bf d4 16 5c 3e 70 7d 78 3d
       0.13320303 -0.55185795 0.21493083 0.0606665
000200 b4 af d8 bd 83 58 4d 3d 93 3f c6 3d 70 ad 98 be
       -0.10580388 0.05013324 0.096800946 -0.29819822
000210 b7 7c 21 be 11 be ae be c0 89 93 be 25 cd e1 bd
       -0.15770231 -0.34129384 -0.28816032 -0.11025456
000220 c5 88 7e be 94 d5 eb be ab af ed 3d c7 4c 35 3e
       -0.24856861 -0.46061385 0.11605772 0.1770507
000230 61 78 6f be 15 0f bc 3d ff ea 14 3e b1 59 a4 be
       -0.23385765 0.09182564 0.14542769 -0.3209968
000240 c8 09 83 be 12 ea 01 bf 60 f0 7f be 77 c9 f9 bd
       -0.255934 -0.5074779 -0.2499404 -0.121966295
000250 1e 13 e7 bd 64 4b de be 2c 7d 87 3d 3d 04 ea bd
       -0.11282943 -0.43416893 0.066156715 -0.1142659
000260 37 7c 34 bf 9d 15 eb bd 20 ee 7e be 3e 41 41 be
       -0.70502037 -0.11478732 -0.24895525 -0.18872544
000270 e1 97 eb 3d bb c4 16 3b 7c 08 14 be 2e f9 06 3e
       0.11503578 0.0023005444 -0.14456362 0.13180992
000280 a2 99 da ba 73 84 02 be 68 22 41 3d ff 4d 89 bd
       -0.0016677866 -0.12745838 0.047151953 -0.0670433
000290 98 0a 95 3d 31 58 63 3d 35 1f d2 3b 15 67 a8 3d
       0.07277411 0.055504028 0.0064124116 0.08222786
0002a0 0a ff 7b 3d 2a 11 7f 3e b0 50 59 3e 9b 5c d0 be
       0.06152252 0.24908891 0.21222186 -0.40695652
0002b0 aa f1 85 be 3b 16 c9 be 46 62 51 be db 13 0f 3d
       -0.26160938 -0.39274773 -0.20447645 0.034931045
0002c0 a0 48 ad 3d 64 a0 13 3e 4d 46 8b 3e 7e 38 05 3e
       0.08461118 0.14416653 0.27202073 0.13009831
0002d0 52 7e 2e 3e c7 b6 59 3e 8c 1f 31 3e 1d 8a a3 3c
       0.17040375 0.2126113 0.1729719 0.019963318
0002e0 d4 49 32 3d 63 bb 08 3e d4 87 0a be 3f ef 2a be
       0.04352744 0.13352732 -0.13528377 -0.16692828
0002f0 28 a0 88 bd 99 13 40 bc db 23 b4 bd 2f b5 6c be
       -0.066711724 -0.011723422 -0.087959014 -0.23115991
000300 a8 79 d4 bb 7e a3 9e 3e 68 3f 8e 3e 5f 75 b6 3d
       -0.006484229 0.3098411 0.2778275 0.089091055
000310 75 b2 07 bd 4d 65 cc 3d 51 d5 0b bd 25 2d fc bc
       -0.033129174 0.09980259 -0.03413898 -0.030783245
000320 0b 25 2c be ad 13 ea 3d 77 9d 0d 3c 09 7b 01 be
       -0.16811006 0.11429534 0.0086435 -0.1264459
000330 d6 b6 07 3d 61 13 02 3d 4c cb fb bd 34 69 75 bc
       0.03313335 0.031756762 -0.12294635 -0.014978696
000340 85 91 0b be a4 44 c8 be ac c6 81 3d 58 f3 93 3d
       -0.1362973 -0.3911487 0.06336722 0.072241485
000350 bc 53 da be 64 02 26 3e 74 79 56 bd fc 5c 07 bf
       -0.4264201 0.1621185 -0.05236192 -0.5287626
000360 04 98 1f be e2 c9 4f be f5 29 ec bd c3 4f 10 be
       -0.15585333 -0.20291856 -0.1153144 -0.14092927
000370 da 64 e2 3b 90 b2 12 bd 87 c4 2e 3e d7 ae 49 3e
       0.006908995 -0.03581482 0.17067157 0.19695602
000380 56 b4 9f 3d 20 04 47 3d fc 6f b8 ba 70 a9 a5 be
       0.07798068 0.04858792 -0.001407146 -0.32355833
000390 04 38 05 3e 84 c3 6c 3e 75 e6 b7 be 3e 6f 93 3d
       0.1300965 0.23121458 -0.35918012 0.07198952
0003a0 e9 76 d2 bd 5e 9e 82 be cc 2d c9 3d c8 55 87 3d
       -0.102765866 -0.2551145 0.09823188 0.06608158
0003b0 f7 87 f1 3d cc a4 47 bd 9d 0b c3 3c df 8a 1a 3e
       0.11793511 -0.048741147 0.023809249 0.15092038
0003c0 19 3a ac 3d 97 66 ac 3c 8e cc ea 3d f9 45 13 be
       0.08409519 0.021045012 0.11464797 -0.14382161
0003d0 30 cb 8e be fd cb bb be e1 36 65 3d 43 68 70 3d
       -0.27889395 -0.36679068 0.05596054 0.05869318
0003e0 27 9b 3c be 00 26 a2 3d 63 8e 8b 3d 88 52 ad be
       -0.18418561 0.07917404 0.068142675 -0.3385203
0003f0 cb 66 5b 3c e3 98 68 3c 86 dd 3d bc ca 39 85 3d
       0.013391207 0.014196607 -0.01158846 0.06505163

conv2.bias f4 [64]
000000 bf 21 84 3d 15 d0 e6 3c ba 70 6b bd 18 6b 5c bd
       0.06451749 0.028175393 -0.05748055 -0.05381307
000010 a7 2c 3a 3d 9a 7d 50 3a 05 19 84 bd 02 8b db bd
       0.04545274 0.00079532864 -0.064500846 -0.10719873
000020 1d 84 c3 bc aa 0c c6 bd 76 1a 07 be 15 14 97 bd
       -0.023866707 -0.09670384 -0.13193688 -0.07376877
000030 71 b0 9b bc 85 f2 42 bb 59 6d 85 bd be 3f b6 bd
       -0.019005032 -0.0029746604 -0.06514997 -0.088988766
000040 f3 6d e6 bd db b1 f7 3c ef eb e2 bd 01 b9 5f bd
       -0.1125144 0.030236175 -0.11080157 -0.054619793
000050 80 1f 42 bc 02 e5 0d bb fc e9 da bd f3 44 9b bd
       -0.0118483305 -0.0021651392 -0.1068916 -0.075815104
000060 09 1b 47 bd fd d4 06 3c cf 50 07 3e ee 79 a3 bd
       -0.048609767 0.008229491 0.1321442 -0.079822406
000070 a6 7e 7f bd 0c d0 bb bd 9e ac 38 3d 2a a0 83 bd
       -0.06237664 -0.09170541 0.045086496 -0.06427033
000080 3e 84 24 ba 4e 21 8c bd d5 fc 82 bd f1 fe be bd
       -0.0006275809 -0.0684229 -0.0639588 -0.0932597
000090 aa d5 e7 bc f0 2c 78 bd 5f 57 35 bc 02 97 c9 3c
       -0.028300125 -0.06058973 -0.011068194 0.024608139
0000a0 03 2e a9 bd d7 c7 16 3d e6 7c 49 bd 5b 88 ea bd
       -0.08260729 0.036811676 -0.049191378 -0.11451789
0000b0 6c 64 89 bd 0c f0 06 bc c2 c2 78 3a 7d 1f 5a bd
       -0.06708607 -0.008235943 0.00094894704 -0.053252686
0000c0 5c ec 9d bc f4 7a 0e bd 82 4d eb bc a1 ef 5f bb
       -0.019277744 -0.034785226 -0.028723482 -0.003416993
0000d0 7b 7e 6c bd 77 a0 61 bd 92 c8 12 bd 07 b3 a1 bd
       -0.05773781 -0.05508467 -0.03583581 -0.07895475
0000e0 31 89 28 bd bd 86 91 bd e5 49 9f bd 35 91 f6 bc
       -0.04114646 -0.071057774 -0.07777766 -0.030098537
0000f0 4f fe a2 bd 62 eb a7 3b bd 44 97 bb b0 98 eb bc
       -0.07958662 0.0051244954 -0.0046163485 -0.02875933

conv3.weight f4 [128, 64, 3, 3]
000000 d6 18 f7 bd 61 ac 3c be 71 4b b8 bd cf 73 b1 bb
       -0.12065284 -0.18425132 -0.08998764 -0.005415417
000010 1a a6 c3 be 9f 11 9c bd 98 cf 5f bd 69 32 3f 3a
       -0.38212663 -0.076205485 -0.054641336 0.00072935835
000020 47 17 4e 3e e6 07 80 bd 69 0d a6 bd 30 16 09 be
       0.20126067 -0.062515065 -0.081080265 -0.1338737
000030 4e bc 6c be d6 1d 62 bc 6f 03 5c be 2d fc 01 bd
       -0.23118708 -0.013801059 -0.21485685 -0.031734634
000040 7f 8c e4 bd 7e 93 c8 3c 4b 8b 2e bc e6 77 fb 3c
       -0.1115961 0.024484392 -0.010653327 0.03069682
000050 56 9d 56 3a 7e 4e 14 3d 6b 4d ba bc 0d 16 5f bb
       0.0008186897 0.03620767 -0.022741994 -0.0034040243
000060 f4 52 11 3d 14 6e 13 3d 5a b0 11 bd 7d 34 90 3d
       0.0354795 0.03599365 -0.035568573 0.07041261
000070 21 6b b8 3d 18 23 58 3d 71 e6 be bd 2a 21 22 bd
       0.09004808 0.052767843 -0.09321297 -0.03958241
000080 cf 75 12 bd 6d cc ac 3c 6f dc c1 3d 00 8e a8 3d
       -0.035756882 0.021093572 0.094658725 0.08230209
000090 6c 2f 48 be 19 5d 0f be e5 b7 f9 3c 15 e9 b4 bd
       -0.1954934 -0.14000358 0.030483196 -0.08833519
0000a0 73 65 7b 3d 1c a8 32 3d 4e 34 3a be c1 54 0d be
       0.061376046 0.043617353 -0.18184015 -0.13801862
0000b0 84 df 6f bd 50 16 52 bd 84 b2 ce 3c 6e 7f ee 3a
       -0.05856277 -0.05129081 0.025231607 0.0018195936
0000c0 e6 15 61 3b b6 24 41 bd d4 5e 1d b9 9b d2 15 3d
       0.0034345328 -0.04715415 -0.00015008013 0.036577802
0000d0 b6 91 05 be cb 3b 5d 3a 07 5f 2b bd 53 bd b5 bd
       -0.13043866 0.0008439391 -0.041838672 -0.08874001
0000e0 0b 67 4b 3e 74 a8 5d 3a ca 90 96 bd 28 7b d8 bd
       0.19863527 0.00084555824 -0.07351835 -0.10570365
0000f0 44 1b 0f be 19 46 5c bd 15 a8 87 be d1 0f b4 bd
       -0.13975245 -0.053777788 -0.26495424 -0.08792079
000100 2f cb 22 bd 10 2f 0c 3d 27 0d e8 3c 42 c2 ac 3d
       -0.039744552 0.03422457 0.028326584 0.08435489
000110 54 d5 72 3b 61 2f 22 3d f7 fc 85 3e 5f 89 18 3e
       0.0037053423 0.039595965 0.2616956 0.14896153
000120 b8 d3 16 39 06 82 ca 3c 67 4c 38 be f3 28 01 be
       0.00014383986 0.024720203 -0.17997895 -0.12613277
000130 ed 2c 0e be b7 22 39 be 96 a6 59 bd 20 26 3a be
       -0.13884325 -0.18079649 -0.053137384 -0.18178606
000140 52 47 96 be e4 b5 07 3d 86 8b 1b 3d 57 b5 0f bd
       -0.29351288 0.03313245 0.037974857 -0.03508505
000150 c2 ba 82 3b be 44 3f 3d fd cb 95 be a1 4e 14 be
       0.0039895484 0.046696417 -0.29257193 -0.1448312
000160 60 8b ed 39 f7 61 b5 be 8d d7 bf bc 23 2f e5 3c
       0.00045308005 -0.35426304 -0.023418212 0.027976578
000170 0a 0c 18 3d 78 fb 48 3d c7 8c c3 3b da 8c fb 3c
       0.037120856 0.049067944 0.0059677097 0.030706812
000180 bb af 98 bd ac cc 47 bc 09 88 84 bd 73 5a 84 3d
       -0.07455393 -0.012194794 -0.06471259 0.06462564
000190 90 a5 89 3c 3d fc 2a be 3e 6c 46 be 8d 5d b5 bd
       0.01680258 -0.16697784 -0.19377229 -0.08855734
0001a0 7f 25 80 bc 67 16 32 3e 77 53 49 3d 89 e6 9d be
       -0.01564288 0.17391358 0.049151864 -0.30839947
0001b0 64 29 de 3c 62 dc f2 bb 51 c3 7a bc 2e 0c 8f 3d
       0.027119346 -0.0074115256 -0.015305356 0.06984745
0001c0 4f 0a cc 3d bf 04 9b 3d 94 f8 5a bd 61 2f 59 be
       0.09962904 0.075692646 -0.05345972 -0.2120948
0001d0 4a 3a 35 be 7c e7 33 bd 71 73 ec ba eb 9e 37 3d
       -0.17698017 -0.043921933 -0.0018039775 0.04482929
0001e0 38 c1 e9 3d ac c0 3a 3d c3 45 65 be 41 88 12 be
       0.11413807 0.045593902 -0.22389893 -0.14309789
0001f0 db da d9 bd bc d5 88 be 2f d8 e4 3c 1f e3 b4 3b
       -0.106374465 -0.26725566 0.027935116 0.005520239
000200 c2 56 7b bc 82 9e 3d bd 62 e4 8a 3d df 82 03 bd
       -0.015340509 -0.046293743 0.06781842 -0.03210723
000210 65 46 e6 bc cc 5e a9 bc 43 5f 74 3e e0 c8 79 bc
       -0.028109739 -0.020675085 0.23864464 -0.015245646
000220 f6 d9 4f bc a6 05 15 bd 43 97 a0 bc 26 e3 c7 3c
       -0.012686243 -0.03638234 -0.019603377 0.024400305
000230 d6 ca 76 bc 48 11 85 3c 66 78 d6 3c eb 94 ca 3c
       -0.015063008 0.016243592 0.026180457 0.024729213
000240 33 dc e0 3b f3 f8 d4 3d 2c 2b 2b 3d 3b e5 21 bd
       0.0068621873 0.10399046 0.04178922 -0.03952525
000250 78 23 29 3d 6d 2e c2 3a 19 04 4c be 32 2c df 3c
       0.04129359 0.0014814861 -0.19923438 0.027242754
000260 e0 4b 2b bd ba d9 a2 3d 44 e1 08 be 80 0d 0b 3e
       -0.041820407 0.07951684 -0.13367182 0.13579369
000270 68 e0 89 3d 0e 1e 11 3d ba c4 15 3d e0 cf 39 3e
       0.06732255 0.035429053 0.036564566 0.18145704
000280 68 ea 29 bd 18 00 23 be a4 fa 82 3d 12 3a 25 be
       -0.041483313 -0.15918005 0.06395462 -0.16135433
000290 cb e7 86 3b 50 52 2d 3d c3 89 11 3d 9f 92 08 bb
       0.0041169873 0.042314827 0.03553177 -0.0020839346
0002a0 7b 70 05 be c3 30 ed bd 85 ba d2 3c 82 45 1f 3e
       -0.13031189 -0.11581566 0.025723705 0.15553859
0002b0 22 d7 6c 3b af 5c 0c 3e aa 0d 01 3e 6e 29 a3 3c
       0.0036138971 0.13707231 0.12602869 0.019917216
0002c0 6c 9b 97 3d 17 d6 8e bd 6b d1 2e bc 0d b9 ad 3d
       0.07402691 -0.06974428 -0.010670046 0.08482561
0002d0 4f 6b 01 be 5e 34 89 bd a1 f7 64 bc 95 ff 39 3d
       -0.12638591 -0.066994414 -0.013975055 0.045409758
0002e0 1e 89 28 3d d3 c6 13 bd 44 06 1b be 69 ce 67 be
       0.04114639 -0.036078285 -0.15139109 -0.22637333
0002f0 ba 10 10 bd c8 6b 3d bd 3e 7d 8c 3c e7 b0 9e 3d
       -0.0351722 -0.046245366 0.017149564 0.07748585
000300 6f 9f 58 bd b2 a2 cc bd 54 82 d7 bd 24 d1 22 3e
       -0.052886423 -0.09991969 -0.10522905 0.15900093
000310 6d 75 97 be 48 4e 8c be a5 96 aa 3c de 04 17 3d
       -0.29581776 -0.27403474 0.020823786 0.036869876
000320 4e 28 66 3d 37 fb bf bd dd 5d d3 ba 38 02 b9 bd
       0.05619078 -0.09374087 -0.0016125996 -0.09033626
000330 f0 1d 6e be 05 6c 82 be c2 f9 67 bd 8e da a0 bb
       -0.23253608 -0.25473037 -0.056634672 -0.0049088662
000340 1f 70 85 bc 30 38 73 bd 11 f0 b6 3b 65 27 fa 3d
       -0.016288815 -0.059379756 0.0055828174 0.12214545
000350 ec 0d 78 3d 79 80 23 bd c3 c4 a1 be a2 d2 ba bc
       0.060560152 -0.039917443 -0.3159543 -0.022805516
000360 d1 db ea 3d 50 d4 e7 bb 22 5f 21 3d 00 ef d6 bc
       0.11467708 -0.00707487 0.039397366 -0.026237011
000370 ed 62 74 3c 22 98 c3 3d dc 5a 3d be c1 82 f8 bd
       0.014916164 0.095505014 -0.18491691 -0.12134314
000380 99 86 d7 bd c2 36 ac 3d 0c 5d 18 bc b1 78 90 3b
       -0.10523719 0.08408882 -0.009299528 0.004408919
000390 5f 20 90 bd b7 b2 b4 bc e5 b4 85 3d e6 fa 07 be
       -0.07037424 -0.022057874 0.065286435 -0.13279304
0003a0 e7 51 7f bc e3 07 40 bb cd 7c c3 bd c9 a7 c9 bd
       -0.015583492 -0.0029301576 -0.09545288 -0.098464556
0003b0 77 97 53 be eb 5d bc bd 6a 21 f1 bd 24 de d6 ba
       -0.20663248 -0.09197601 -0.11773951 -0.0016393107
0003c0 15 ef 42 bd f8 86 57 3c 80 b1 0b 3e 37 58 01 3e
       -0.047591288 0.013154738 0.1364193 0.12631308
0003d0 9b 00 a3 3d 54 58 d5 bc 57 95 07 be 39 1d 32 3b
       0.079591 -0.026043095 -0.13240562 0.0027178063
0003e0 9d 64 b2 bd f0 43 42 bd d5 e1 10 bd 3f f0 7d 3e
       -0.08710597 -0.04742807 -0.03537162 0.24798678
0003f0 95 21 07 be 1e 2c cc 3d 86 50 28 bd 35 7f b0 bc
       -0.13196404 0.09969352 -0.041092418 -0.021545032

conv3.bias f4 [128]
000000 e7 97 e5 bd 31 4f c3 bc f3 bf cb 3c 60 f2 c6 bc
       -0.11210614 -0.023841472 0.024871802 -0.024285495
000010 46 d7 61 bc 40 6c 0b be c4 88 19 ba 06 5b da 3c
       -0.013784235 -0.13615513 -0.00058568665 0.026654731
000020 49 10 6a bd df 17 2b bb 37 8f d1 bd 07 d3 64 bc
       -0.057144437 -0.0026106758 -0.10232394 -0.013966328
000030 b7 cc 9c 3d 1c 11 35 bd e1 1f 9f bc 21 f4 97 3c
       0.07656234 -0.04420577 -0.01942438 0.018549027
000040 fd 23 3e 3b 98 7a ad bd 68 5d ee bb 3d e2 b7 3c
       0.002901315 -0.084706485 -0.0072743185 0.022446746
000050 65 36 20 bd 1d df a5 bd f4 be 87 bc 90 53 a2 bd
       -0.039114375 -0.08099196 -0.016570546 -0.079260945
000060 f3 8e b7 bd 10 62 81 bc 97 76 cf 3b a2 9d 47 bd
       -0.08962812 -0.01579383 0.0063312757 -0.048734315
000070 97 26 5e bd 73 0a b7 bd 96 ea 1e bd ac 0a 91 bd
       -0.05423602 -0.0893754 -0.038797937 -0.070821136
000080 65 b1 2a 3c 6b 42 8a bd 9d ad ce 3c d9 22 18 3d
       0.010418271 -0.067509495 0.02522927 0.03714261
000090 3f 62 bc bc 77 b7 da bd 89 fc 9b bd 6e a8 17 bd
       -0.022996066 -0.106795244 -0.07616527 -0.03702586
0000a0 46 1d c2 bd 1f 81 71 bc 1c 7f 85 bd f1 ef 95 3c
       -0.0947824 -0.0147402575 -0.06518385 0.01830289
0000b0 ec 24 58 3c 2e a3 4b bd 2a 43 8d bd cd a6 0f 3c
       0.013192397 -0.049716167 -0.06897576 0.008767796
0000c0 1d f3 06 bd 2f c6 21 3d 70 05 56 bd d9 2a ce bd
       -0.032946695 0.039495643 -0.05225128 -0.10066766
0000d0 0e 9b 84 bd 93 36 99 bd b0 b2 df bc 9d 54 a2 bd
       -0.06474887 -0.07481112 -0.027306885 -0.07926295
0000e0 27 17 5f bd f1 e7 3c bd 27 82 35 bd 79 4e 12 3c
       -0.05446544 -0.046119634 -0.044313576 0.008929842
0000f0 0c 0d af bc 41 31 3c bc 05 3f 8b bd ab 80 92 3b
       -0.021368526 -0.011486352 -0.067991294 0.004470905
000100 f5 cf 87 bd b8 72 97 bc 4e 21 a6 bd 3c 8e 02 bc
       -0.066314615 -0.01848732 -0.08111821 -0.007968482
000110 23 75 a3 bd aa 05 65 bc 2f 4d d7 bd 91 f8 e9 bc
       -0.079813264 -0.013978401 -0.105127685 -0.028560909
000120 8e e6 3e bc 45 b4 7d bc 0a f9 a9 bd dd 68 f7 bd
       -0.011651648 -0.015484874 -0.082994536 -0.12080548
000130 f9 53 a7 3c 7c 9b 04 be 8a c0 25 39 95 fe 06 bb
       0.020425783 -0.12949938 0.00015807353 -0.002059852
000140 4c 5c d9 bc de 12 09 bd 78 ca 96 bc 53 6f 9d bd
       -0.026533268 -0.03346526 -0.018407091 -0.07687249
000150 6e 2f a6 bd f3 c7 96 bc 1e af d8 3a ce 82 72 bd
       -0.08114515 -0.01840589 0.0016531681 -0.059206776
000160 af 81 cc bd 95 d5 c2 bb 54 e6 0b bd 31 50 6e 3b
       -0.09985673 -0.005945871 -0.034155205 0.0036363716
000170 47 22 42 bb e6 01 b8 3d 4f 70 08 bd 11 7e 10 be
       -0.0029622482 0.08984737 -0.03331023 -0.1411059
000180 55 10 de bc 29 ff c6 3c ae f3 1a bd a8 8a 1a bd
       -0.027107397 0.024291592 -0.037830047 -0.03772989
000190 e6 6c 08 3d 34 5e 9c ba 86 76 1a bd 06 48 44 bd
       0.03330698 -0.001192993 -0.03771069 -0.04792025
0001a0 b8 d1 46 bd 9c 44 39 bb 4e 19 9a bd be 2c 67 bc
       -0.048539847 -0.0028269654 -0.07524358 -0.014109788
0001b0 f3 4d 42 bd 12 96 c0 bb ff 90 27 bd b1 77 27 bd
       -0.04743762 -0.005877265 -0.040909763 -0.04088563
0001c0 76 0f 59 bd 9f 12 ac bc 95 ac f4 bb 08 1a 2c bd
       -0.05299326 -0.021004973 -0.0074668624 -0.042017013
0001d0 d3 cf ad 3c 9c cd bf 3c 7d a9 90 bd ec 7d 7f b9
       0.021217262 0.023413472 -0.07063577 -0.00024365605
0001e0 2a 3b 1a bd 02 ad 29 bd dd b3 bd bd 68 c0 e8 bc
       -0.03765408 -0.04142476 -0.09262822 -0.028412059
0001f0 ba a8 0c bd 72 f0 9c 3c 93 91 ce 3c a0 d3 d5 bd
       -0.034340598 0.019157622 0.0252159 -0.10440755

fc1.weight f4 [10, 128]
000000 b6 a6 83 be 3a a0 24 be 20 55 9b be 84 a8 e2 3d
       -0.25713128 -0.16076747 -0.30338383 0.11067298
000010 d2 34 9a bc 33 fd 93 be 81 e5 80 bd 79 1b aa be
       -0.018824015 -0.28904113 -0.062937744 -0.33224085
000020 e7 77 a5 3d 55 00 7e 3d b3 d5 81 be a3 bc e0 bd
       0.0807951 0.062012035 -0.25358352 -0.109734796
000030 dd 78 8a 3d e9 f9 85 3d 7b 7f 41 3d 35 96 c4 3b
       0.06761334 0.06541807 0.047240715 0.0059993514
000040 70 ca 1e 3e fd 3c 54 be cd a0 6e be ce 84 84 3c
       0.15506911 -0.2072639 -0.23303528 0.016176607
000050 3f a7 24 be 61 f2 47 be 1c 06 24 bd 03 b9 ec bd
       -0.16079424 -0.19526054 -0.04004489 -0.11558726
000060 ca f6 03 3e a8 ea a2 3d 70 fe 8d 3d fc 1d e3 be
       0.12887111 0.079549134 0.06933296 -0.44358814
000070 f9 8a c0 3c 9c 40 4a bd d0 92 88 3d b2 6a 33 3d
       0.023503767 -0.049378023 0.06668627 0.043802924
000080 6d 1b bc be fe 33 b0 bd 33 65 28 3d 45 e1 07 3e
       -0.36739674 -0.08603667 0.041112136 0.13269527
000090 3f 82 77 be 6f 66 15 be 43 06 d1 3d 2e d7 3e be
       -0.24170779 -0.14589857 0.102062725 -0.18636772
0000a0 a0 52 81 3d b6 bc 19 3e e8 9c f2 3c c0 12 69 bd
       0.063145876 0.15013394 0.029615834 -0.056902647
0000b0 a4 29 4f be f2 de 3f be ee ae 2c 39 71 52 84 bb
       -0.20230728 -0.1873739 0.00016468365 -0.004038148
0000c0 ea f7 a9 3d 58 ec e0 bd 46 f3 58 3e d0 20 10 be
       0.08299239 -0.10982579 0.21186551 -0.14075017
0000d0 5d 80 9d 3d e1 62 e2 3d 96 af 49 3e 3e a2 88 3d
       0.07690499 0.11054016 0.19695887 0.0667157
0000e0 a0 4f 43 be 9c 32 0d be 52 c4 f1 3b e5 22 6a bd
       -0.19073343 -0.13788837 0.0073781395 -0.057162184
0000f0 85 fc 99 bd 8d b0 75 3d dc 8e 0d be af 10 d3 3a
       -0.075188674 0.059982825 -0.13824028 0.0016102995
000100 aa e2 31 be 6c 85 90 3c ff fc 46 3e 88 6c 32 be
       -0.17371622 0.017641746 0.19432448 -0.17424214
000110 99 49 a9 be d4 f9 62 bc c1 51 21 3d 24 b6 ca 3d
       -0.33063963 -0.013853509 0.039384607 0.09898022
000120 73 1b 99 bd 73 39 27 bd 04 8f 48 be 8c eb 6a bd
       -0.07475939 -0.040826272 -0.19585806 -0.05735354
000130 0d f4 a0 3b e3 6e 08 be f2 d5 e9 3c c8 24 36 bc
       0.0049119056 -0.1332355 0.0285444 -0.011117168
000140 9d a8 9e 3c f7 f4 92 3c 98 4d ae 3b 9e e4 6f bd
       0.01936751 0.017939074 0.0053193085 -0.058567636
000150 2e a7 bb 3d d5 2a 1f 3d b2 24 99 3d a8 35 46 bd
       0.09162746 0.038859207 0.07477702 -0.048391014
000160 1b 0e 17 3e b2 af 82 3d f7 2b a2 3c e3 1e c3 bd
       0.14751475 0.063811675 0.019796355 -0.095273755
000170 b7 98 62 bd bf 22 b5 3d 9e 7c 14 bd 02 fc 62 be
       -0.05532142 0.08844518 -0.036251657 -0.22166446
000180 45 75 3f 3d 1b ec d7 3d 94 b2 73 bd 5e 3b 11 3e
       0.046742696 0.105430804 -0.059496477 0.14182803
000190 86 ea 4b 3e d9 0e 33 be bd d6 2f be 68 cb 55 bd
       0.19913682 -0.17486133 -0.1717176 -0.052195936
0001a0 f7 f5 76 bc c2 ec ce bc ad cf 97 be 93 ff ab 3d
       -0.015073291 -0.02525938 -0.29650632 0.08398356
0001b0 df 43 72 be 8f 11 e8 3d 92 bf a0 be 62 1e 4c be
       -0.23658703 0.11331474 -0.31396157 -0.19933465
0001c0 24 9c 2b 3d c8 47 a7 3d 04 dc b6 bd 70 96 71 3c
       0.041896954 0.08167988 -0.089286834 0.01474534
0001d0 8c 8e 68 be 4c f1 b6 be 03 12 b8 be d0 4c 5b 3d
       -0.22710627 -0.3573097 -0.35951242 0.05354005
0001e0 27 70 90 be a2 be fe 3d 9f 3a 2b 3d 9b 98 e0 3c
       -0.28210565 0.12438704 0.041803952 0.027416518
0001f0 64 b1 99 3d 92 28 7a bd 6d 82 86 bd 62 e0 9a bd
       0.07504538 -0.061073847 -0.065678455 -0.07562329
000200 c8 7d e1 bc 2f e8 51 bd 4c 05 81 3d 2c f1 96 be
       -0.027525797 -0.05124682 0.062998384 -0.29480875
000210 69 84 ae 3d b6 b0 02 bd d0 7a be bc 40 00 51 3e
       0.08521349 -0.031906806 -0.023251921 0.20410252
000220 78 7c 13 bc f9 3a 6b be 36 f6 26 be 2c fd d0 3c
       -0.009001844 -0.22971715 -0.1630486 0.025511347
000230 8e e3 ed 3d e9 24 04 3e c3 76 a2 3d 34 3e b4 3d
       0.11615668 0.12904705 0.07932808 0.08800927
000240 ac 82 33 be 0e cc ed 3d ce 4e 21 3e 0f f0 1a bd
       -0.17530316 0.11611186 0.15752718 -0.037826594
000250 ca d7 55 3e 3d e2 e4 be a4 c4 72 3d 9e 9c c6 be
       0.20883098 -0.44703856 0.059269562 -0.38791364
000260 77 4e f4 bd e9 96 19 be ca d2 6e bd ce bd 08 3e
       -0.119290285 -0.14998974 -0.058306493 0.13353655
000270 c6 0b 9f bd 25 f4 bb 3d 87 3c 0a bd 0d 3a 99 bd
       -0.077659175 0.09177426 -0.03374913 -0.074817754
000280 b1 21 05 be b6 c0 07 3e 7f 2b b9 be 61 5d bc be
       -0.13001134 0.13257107 -0.36165997 -0.36789992
000290 8b ab 01 be b6 3d 3e 3d f2 1b bd be 4d e4 65 be
       -0.12663095 0.04644557 -0.36935383 -0.22450371
0002a0 3e 68 a6 be c6 a9 2c 3e 11 20 52 3c 97 83 88 bb
       -0.32501405 0.16861638 0.012825028 -0.0041660774
0002b0 1f 10 bf be 0b 27 18 3e e2 3e 33 bd ee f2 58 3e
       -0.37316987 0.14858644 -0.04376114 0.2118642
0002c0 14 d8 28 3e 33 6e 5f 3d 70 9d 12 be 60 cd d9 3d
       0.16488677 0.054548454 -0.1431787 0.10634875
0002d0 29 0e 99 3d 22 86 a3 3c 3d 58 ab be 7d dd 1b 3e
       0.07473404 0.01996142 -0.33465758 0.1522121
0002e0 de 33 89 be 65 a2 04 3e 67 67 7f be 7f 62 a4 3d
       -0.26797384 0.12952574 -0.24941789 0.08026599
0002f0 3d e6 52 bc 9c 5b f6 bd 8e 1a 88 3d 28 c9 b7 3d
       -0.012872276 -0.12029192 0.0664569 0.089739144
000300 5e 1c 58 be de 7a 66 be 28 f2 5b be 2c 98 3b be
       -0.21104571 -0.22507808 -0.21479094 -0.18319768
000310 db d8 97 3d f9 92 c1 bc e4 0f d1 3d 73 2a 4d be
       0.07414409 -0.023629652 0.10208109 -0.20035724
000320 d3 02 57 bd 6b fa ba be d9 8c 91 be aa 15 36 be
       -0.052492928 -0.3651918 -0.2842777 -0.17781702
000330 36 19 e6 bc e0 0e 09 be 0d 25 12 be 92 bf 0b bd
       -0.028088193 -0.1338458 -0.14271946 -0.034118243
000340 12 c8 e5 bd e2 38 c3 3d fb c7 1a 3e 06 dd 8b 3c
       -0.11219801 0.09532334 0.15115349 0.017073166
000350 c7 a9 20 3e 7a 5e 22 bd ad 60 e3 3d f3 25 44 3d
       0.15689765 -0.03964088 0.11102424 0.047887754
000360 ed 06 94 be 76 ca 87 3c d7 84 5c bd dc e2 7d bd
       -0.28911534 0.016576033 -0.053837623 -0.061983928
000370 f0 4d c9 be e0 24 df be 38 fc bd 3c ff 8a 02 3e
       -0.39317274 -0.4358282 0.023191556 0.12748335
000380 e4 55 28 3c 3e a3 bb 3d 28 ea 36 3d c8 c2 80 be
       0.010274384 0.09161995 0.044656903 -0.25148606
000390 b5 52 cf 3d 43 3f c4 be 49 33 20 3d a8 99 18 3b
       0.10123197 -0.38329515 0.03911141 0.0023284946
0003a0 a2 92 5a bd ca 71 8c bc ce 51 12 be 98 7b fd 3d
       -0.053362496 -0.017144103 -0.14289019 0.12377089
0003b0 af 50 df bd 60 8d b6 be 44 d8 b6 3d f7 c7 8a be
       -0.10904061 -0.35654736 0.08927968 -0.27105686
0003c0 d4 04 46 be ee 39 1c be a8 f3 bb be ef c4 88 bd
       -0.1933778 -0.15256473 -0.36709332 -0.06678187
0003d0 5e 33 20 3e d6 01 e1 3d d4 8d fa bd f5 31 6e bd
       0.15644595 0.10986678 -0.12234083 -0.05815311
0003e0 da 88 86 3a ca e3 01 3e 69 7b 6b 3d 49 32 aa 3d
       0.0010264174 0.12684551 0.05749074 0.083103724
0003f0 31 c5 18 bd 1c 61 5f bd 9a cf 6f bc 55 d5 8a be
       -0.03729743 -0.05453597 -0.014636898 -0.27115884

fc1.bias f4 [10]
000000 9c 11 9c 3e 08 68 f4 3e 19 e3 95 be 8f 44 2f 3e
       0.30482185 0.4773562 -0.29274824 0.17115997
000010 b6 83 a5 bd 08 65 ce bd dc 23 49 be 62 76 85 3e
       -0.080817625 -0.10077864 -0.19642586 0.2606688
000020 a6 6b 8e bd c4 44 49 be
       -0.06954126 -0.19655138
